Assets/Spaceship 1.onnx (onnx, 82660 bytes, 7 tensors)

action_model._continuous_distribution.log_sigma f4 [1, 7]
-0.11024413 -0.09998732 -0.1138312 -0.11106037 -0.10797122 -0.095439866 -0.078930594
00000000: adc7 e1bd 27c6 ccbd 5520 e9bd 9f73 e3bd
00000010: 0420 ddbd fa75 c3bd 5da6 a1bd

action_model._continuous_distribution.mu.bias f4 [7]
0.00095990964 -0.00034776024 0.000678912 -0.0022500725 0.005913138 -0.00040791044 0.0022554437
00000000: 72a2 7b3a 9753 b6b9 03f9 313a f475 13bb
00000010: ffc2 c13b d0dc d5b9 11d0 133b

action_model._continuous_distribution.mu.weight f4 [7, 128]
-0.018325176 -0.040848054 0.027902188 0.014451297 -0.014331379 -0.052440304 0.03798084 0.008146475
0.024776839 -0.008658617 -0.011547132 -0.00012321283 -0.00045899767 0.001993109 -0.001620091 0.0018981402
-0.0022781296 -0.019398367 -0.014918408 -0.019317305 -0.03442921 -0.0074906824 -0.0005323451 -0.01100653
-0.03311922 0.026171597 -0.010148855 -0.024462746 0.013611159 -0.009098919 0.008026054 0.0046015596
-0.017631454 -0.009011464 0.036502164 0.008352562 -0.030096782 0.004508209 0.010831852 0.018281378
0.032090653 0.012310808 -0.027137056 0.011638064 1.9028923e-05 0.051256932 0.015280729 -0.0015374945
0.015340211 0.0008778284 0.016994113 0.019220786 0.019790724 -0.00264382 0.023590004 -0.007742573
0.011277297 0.015827907 0.017481122 -0.0074800206 0.013020034 0.0031595293 -0.0010513809 -0.012852846
0.038714223 -0.021495465 -0.0027998725 0.015011892 -0.028446265 0.024283525 -0.009305401 0.007695376
0.027848067 0.0094656395 -0.015418006 0.02315277 -0.0040102554 -0.008754414 -0.005905898 0.011220323
-0.0041032955 0.0038997384 -0.016363926 0.017484745 0.025230203 -0.015873251 -0.019750291 -0.0203261
0.00267012 0.008244306 -0.023648845 -0.0081249215 -0.011128633 -0.012076029 0.03187264 0.016779285
0.023864303 0.0019720844 -0.002342325 0.014306288 -0.0010240254 0.00242804 -0.014273778 -0.026881421
0.009917363 -0.008710415 -0.027791258 0.030179856 -0.0003704734 0.001067396 0.007257766 0.008873183
0.0045799 0.016682176 0.045721404 0.016995428 0.010846907 -0.017504536 0.031402495 -0.005820979
-0.002874411 0.0010383915 -0.0049377168 0.022057021 -0.030848024 -0.0057114717 -0.0037659279 -0.012997803
0.015177523 -0.0058220546 -0.044110514 -0.019314464 -0.027162338 -0.014722497 0.024918055 -0.0022004286
0.00636631 -0.015963309 -0.00047025597 0.006537622 0.00021974926 0.0030304051 -0.0036240467 -0.0068039116
0.029917449 -0.0053488514 -0.003365706 -0.0013814019 -0.008031561 -0.030320046 -0.01278128 -0.037477974
0.007014707 0.015292754 -0.010633176 -0.006328402 -0.0014399154 -0.01954524 0.055426504 0.018733492
-0.012987253 -0.0030047614 -0.0139909955 -0.014487829 0.015947474 -0.0046562706 -0.011368495 0.004363206
-0.0061645336 -0.0097514745 -0.013253225 0.00053201296 0.009968618 0.0064073782 0.0011997988 0.010514507
0.003501876 0.0034746595 0.014699779 -0.014262718 -0.022568993 -0.00047352005 -0.042175177 -0.0056522423
0.034101035 0.007083992 -0.0017305117 0.006809186 -0.0036423118 -0.0046251784 0.013520123 0.008340166
0.017346557 -0.0024826287 -0.006961906 0.01035439 0.021157345 0.014975324 0.015927607 0.025026677
0.0019333146 0.022811797 0.008004349 0.0046064667 0.008488647 0.018594787 0.008903714 0.018281069
-0.028315522 -0.0080621 0.009488337 0.009046628 -0.008785237 0.02654063 -0.00247253 -0.011727793
0.016831022 -0.021238329 -0.019213539 -0.0041597597 -0.001306668 0.00843193 -0.022310656 -0.009900935
0.0067478856 -0.00011842878 0.00997193 -0.012153055 0.00431644 0.009061532 0.015700297 -0.014367453
-0.013374361 0.013914773 0.011725936 0.0039985063 0.0066072424 0.008329839 -0.033104543 0.021039829
0.041700788 -0.010756017 0.0064604837 -0.019043583 0.004590249 -0.05263603 -0.010476434 -0.027205242
-0.012196684 0.0012170147 0.012448261 -0.01644866 0.00015771874 0.0042254906 0.0032877496 -0.015645897
00000000: ae1e 96bc 4a50 27bd 2193 e43c 22c5 6c3c
00000010: 29ce 6abc a5cb 56bd cc91 1b3d cb78 053c
00000020: ccf8 ca3c dfdc 0dbc 2f30 3dbc b132 01b9
00000030: a0a5 f0b9 d29e 023b 3c59 d4ba 04cb f83a
00000040: ac4c 15bb 53e9 9ebc 576c 74bc 533f 9ebc
00000050: a505 0dbd 6674 f5bb 138d 0bba bc54 34bc
00000060: 05a8 07bd d165 d63c 6247 26bc 1966 c8bc
00000070: 5701 5f3c a213 15bc b67f 033c aec8 963b
00000080: d76f 90bc d2a4 13bc 4b83 153d 2fd9 083c
00000090: 878d f6bc 99b9 933b 1578 313c d4c2 953c
000000a0: 7d71 033d 45b3 493c 884e debc 94ad 3e3c
000000b0: 4da0 9f37 caf2 513d 065c 7a3c c185 c9ba
000000c0: 8255 7b3c 111e 663a 3d37 8b3c e974 9d3c
000000d0: 2820 a23c f043 2dbb d33f c13c 69b5 fdbb
000000e0: 69c4 383c 87a9 813c 9234 8f3c f61a f5bb
000000f0: fb51 553c 1b10 4f3b 7dce 89ba be94 52bc
00000100: ce92 1e3d 4217 b0bc 117e 37bb 70f4 753c
00000110: 2408 e9bc 3eee c63c ae75 18bc 7e29 fc3b
00000120: a121 e43c c515 1b3c ce9b 7cbc e1aa bd3c
00000130: 7668 83bb ac6e 0fbc 4386 c1bb 72d5 373c
00000140: f074 86bb c192 7f3b a40d 86bc 2b3c 8f3c
00000150: 92af ce3c 9f08 82bc 5dcb a1bc ec82 a6bc
00000160: 2efd 2e3b 2013 073c 39bb c1bc 641e 05bc
00000170: df54 36bc 89da 45bc e38c 023d b674 893c
00000180: 127f c33c 163e 013b b181 19bb ec64 6a3c
00000190: 9738 86ba c01f 1f3b 90dc 69bc 6d36 dcbc
000001a0: 6f7c 223c 21b6 0ebc 7eaa e3bc bf3b f73c
000001b0: 193c c2b9 dee7 8b3a 8ed2 ed3b d460 113c
000001c0: fc12 963b 0fa9 883c 5e46 3b3d ff39 8b3c
000001d0: 3ab7 313c ac65 8fbc e79f 003d e9bd bebb
000001e0: 9d60 3cbb a31a 883a 92cc a1bb edb0 b43c
000001f0: ffb4 fcbc 4c27 bbbb c9cd 76bb bdf4 54bc
00000200: 25ab 783c efc6 bebb 3aad 34bd 5e39 9ebc
00000210: 8d83 debc a136 71bc f320 cc3c 1135 10bb
00000220: 7b9c d03b 7cc5 82bc b08c f6b9 8c39 d63b
00000230: 7e6c 6639 c399 463b 6a81 6dbb 59f3 debb
00000240: 7015 f53c 6b45 afbb 2d93 5cbb 2810 b5ba
00000250: cf96 03bc bf61 f8bc 9368 51bc 8182 19bd
00000260: a1db e53b 768e 7a3c c636 2ebc 7c5e cfbb
00000270: 8bbb bcba 571d a0bc e706 633d fb76 993c
00000280: 7dc8 54bc 88eb 44bb 7d3a 65bc 5c5e 6dbc
00000290: 47a4 823c a193 98bb ed42 3abc 3af9 8e3b
000002a0: dbff c9bb a6c4 1fbc 0e24 59bc c976 0b3a
000002b0: 6a53 233c fcf4 d13b 9142 9d3a 0a45 2c3c
000002c0: bb7f 653b 1db7 633b 58d7 703c 2dae 69bc
000002d0: 9ce2 b8bc c942 f8b9 e1bf 2cbd 7236 b9bb
000002e0: 87ad 0b3d d520 e83b 56d2 e2ba 981f df3b
000002f0: dab3 6ebb cf8e 97bb 8283 5d3c 31a5 083c
00000300: 5e1a 8e3c 99b3 22bb b320 e4bb 76a5 293c
00000310: 2b52 ad3c 105b 753c 9d7a 823c bf04 cd3c
00000320: 4667 fd3a cedf ba3c ac24 033c d8f1 963b
00000330: f713 0b3c 1854 983c e2e0 113c 2ec2 953c
00000340: f4f5 e7bc e616 04bc f874 1b3c 4f38 143c
00000350: f4ef 0fbc bc6b d93c 2b0a 22bb ee25 40bc
00000360: 36e1 893c 01fc adbc b665 9dbc 984e 88bb
00000370: 8144 abba 1426 0a3c d6c4 b6bc 8837 22bc
00000380: 5e1d dd3b f85c f8b8 4e61 233c 9b1d 47bc
00000390: ec70 8d3b d276 143c e99d 803c 7765 6bbc
000003a0: 2320 5bbc cafa 633c 241e 403c e705 833b
000003b0: 9181 d83b e179 083c a198 07bd b85b ac3c
000003c0: 72ce 2a3d 013a 30bc 77b2 d33b 4a01 9cbc
000003d0: cd69 963b e198 57bd 59a5 2bbc 87dd debc
000003e0: 9ad4 47bc 3d84 9f3a caf3 4b3c 57bf 86bc
000003f0: 4d61 2539 fc75 8a3b 4977 573b d32b 80bc

network_body.linear_encoder.seq_layers.0.bias f4 [128]
-0.00082440395 -0.00037256762 -0.00013797957 0.0026447175 0.0056634974 -0.006790618 -0.0003274209 0.005015628
-0.0041909995 -0.007812643 -0.005053457 -0.012708744 0.0015354629 -0.006823691 0.005734011 0.007514055
-0.0137782935 -0.008590453 -0.008091603 0.0014520398 0.0015116887 -0.0073208762 -0.005793013 -0.008504331
-0.0037067842 -0.013166572 -0.0014394843 -0.005504466 -0.0065708673 0.00582448 -0.0017863596 0.0064139436
-0.008363681 -0.0061396835 -0.0116909025 0.0038678313 0.0010804909 -0.008994642 -0.0043211845 0.013901131
-0.0035858937 -0.0050287764 -0.0067452188 0.0033845128 -0.0034763324 -0.018766524 -0.001884321 -0.0022565124
-0.013077141 -0.0035873763 -0.009114992 0.010998685 -0.0022311106 -0.0047969325 -0.00079757767 -0.014191464
-0.00076487736 0.0018440383 -0.010456278 -0.011964763 -0.0037329472 0.0029207934 -0.023102153 -0.0017553937
-0.0010365557 0.008628076 -0.0096236095 -0.008933197 3.5058176e-05 -0.005065011 -0.004203687 -0.01859383
-0.010829824 -0.0027674227 0.0041276226 -0.001710803 -0.0043897615 -0.0027958832 -0.011807951 0.004102265
-0.013057649 0.0028724817 -0.0037680326 -0.0031091338 -0.0068659084 -0.012912347 0.004697005 -0.0012174323
-0.005892711 -0.0057274904 0.00021212077 -0.014438521 -0.0075072763 -0.011019996 -0.014151865 -0.0115559725
-0.0031315333 -0.011045216 0.007812074 -0.0039692037 0.003326298 0.0015740021 -0.010623031 -0.007994607
0.004186426 -0.0052783946 0.006385139 0.0026421195 -0.0080291545 0.0017569553 -0.00222872 0.0063428166
0.0049300813 0.003932891 -0.00037278704 -0.01592414 -0.0059265536 0.0075672283 0.0052869846 -0.00080630707
-0.0057738563 -0.004985861 -0.0015931933 -0.017271686 -0.009601133 -0.0036522446 -0.010433445 -0.026017755
00000000: d01c 58ba 2e55 c3b9 9cae 10b9 ff52 2d3b
00000010: dc94 b93b d583 debb b0a9 abb9 235a a43b
00000020: a754 89bb 9a00 00bc 7897 a5bb 5638 50bc
00000030: 9641 c93a 4599 dfbb 5fe4 bb3b 7638 f63b
00000040: 5abe 61bc f9be 0cbc a592 04bc 5f52 be3a
00000050: db23 c63a f6e3 efbb 51d3 bdbb c055 0bbc
00000060: 85ed 72bb 9bb8 57bc 14ad bcba cf5e b4bb
00000070: 6e50 d7bb 48db be3b 4824 eaba 0f2c d23b
00000080: d207 09bc 662f c9bb 338b 3fbc 717b 7d3b
00000090: 429f 8d3a 435e 13bc b998 8dbb 92c1 633c
000000a0: 5001 6bbb 6fc8 a4bb ff06 ddbb b4ce 5d3b
000000b0: 2ed3 63bb 41bc 99bc 52fb f6ba ffe1 13bb
000000c0: 8141 56bc 301a 6bbb 0c57 15bc d433 343c
000000d0: d337 12bb 962f 9dbb 8814 51ba 5083 68bc
000000e0: 0d82 48ba a8b3 f13a cf50 2bbc da07 44bc
000000f0: 76a4 74bb c86a 3f3b ba40 bdbc 3d15 e6ba
00000100: 0add 87ba c65c 0d3c 58ac 1dbc 8b5c 12bc
00000110: 6e0b 1338 64f8 a5bb 15bf 89bb 1652 98bc
00000120: 936f 31bc a65d 35bb 0241 873b 063d e0ba
00000130: fdd7 8fbb 233b 37bb 2376 41bc 4b6c 863b
00000140: c0ef 55bc 3f40 3c3b 19f1 76bb 9cc2 4bbb
00000150: 6afb e0bb 4f8e 53bc 55e9 993b 4092 9fba
00000160: a517 c1bb acad bbbb bc6c 5e39 8c8f 6cbc
00000170: 99ff f5bb 378d 34bc 39dd 67bc 4355 3dbc
00000180: 693a 4dbb fef6 34bc 6dfc ff3b 1810 82bb
00000190: 05fe 593b bf4e ce3a 390c 2ebc d0fb 02bc
000001a0: 492e 893b 62f6 acbb 6e3a d13b 6927 2d3b
000001b0: b78c 03bc a349 e63a b80f 12bb 67d7 cf3b
000001c0: 858c a13b 7bdf 803b a172 c3b9 5873 82bc
000001d0: 8933 c2bb 83f6 f73b 713e ad3b 5a5e 53ba
000001e0: 9e32 bdbb 6f60 a3bb b2d2 d0ba 5a7d 8dbc
000001f0: 124e 1dbc 7f5a 6fbb 0af1 2abc 3023 d5bc

network_body.linear_encoder.seq_layers.0.weight f4 [128, 20]
0.0826698 -0.3373905 0.29440996 0.07543966 -0.2387541 0.23292406 -0.116453804 -0.06984255
0.033247516 0.065800555 -0.124214984 0.07395719 -0.18078193 0.118967526 0.11642641 0.13551435
-0.43952549 0.10554004 0.1864614 0.15884075 0.2771296 -0.23645265 -0.4409921 -0.08961277
0.26724964 -0.112974815 -0.29187605 0.051831428 -0.09107212 0.07770866 0.04832707 0.24316038
-0.07009648 -0.13009328 -0.052707132 0.34928727 -0.19877414 0.051339068 0.016269974 -0.12472904
0.20606805 -0.25679123 -0.032839935 -0.3221708 -0.26114008 0.0034526496 0.03829339 0.042666186
-0.17457902 -0.5323915 0.21719143 0.14261495 0.19399676 -0.22119585 0.17781134 0.12224661
-0.0080685755 -0.24229722 -0.22602457 -0.0040211505 -0.007502193 0.25437605 -0.040831804 0.25487632
0.0018445579 0.04352374 -0.085834414 0.093863316 0.051059008 -0.07855498 0.2534089 -0.20410556
-0.01793688 -0.051324032 -0.037844665 -0.21229732 -0.09805511 0.3109223 0.18420258 -0.2753853
-0.11610868 -0.23263225 0.3588239 -0.2927302 0.049298655 -0.1333365 -0.0021361236 -0.39847907
-0.27953526 0.2671219 -0.25795236 -0.1578596 0.1417854 0.065295815 -0.1703896 0.09686257
-0.3287386 -0.2002553 0.03567915 -0.1250221 -0.18462469 0.19394575 0.0733868 -0.3776225
0.07567333 0.028591845 -0.018313114 0.0020033568 0.057788987 0.25649005 -0.05425483 0.012493239
-0.088496 -0.24472101 -0.047522105 -0.07492683 -0.33051622 0.43155977 0.052491628 0.14538582
-0.20650996 -0.0972385 -0.09571503 0.036916137 0.11489425 0.3225293 0.09904736 -0.17898232
0.18729475 -0.2907803 -0.00084282766 0.06184956 -0.013864678 -0.096763 -0.49768582 -0.028534146
0.04478213 -0.055422556 -0.20673123 0.011839136 -0.05243555 -0.34494528 0.08739647 -0.16307689
0.28174704 0.14118156 0.053139046 -0.43974504 -0.17114219 -0.08345963 0.1550132 -0.03300929
0.12953423 -0.39517054 0.5184438 0.055244308 -0.08561021 0.044162102 0.27802786 0.037091717
-0.1669334 0.31189752 -0.23316376 -0.09595545 -0.2003395 0.26269352 0.14030166 0.054712504
0.31079 0.20732811 -0.020877171 0.21348812 0.13336697 0.018797414 0.009574856 0.0934791
-0.09138565 -0.022737768 0.0647765 -0.12698033 -0.62467533 -0.32954785 0.099599026 0.16777599
-0.1582722 -0.055100933 0.021873157 -0.10299343 -0.31610152 0.08657834 -0.24173656 0.3934474
-0.11649612 -0.16664569 0.102743275 0.2734728 -0.49966604 0.048794076 0.21123989 0.27741432
0.14672144 0.25792673 0.07551054 0.3625024 0.09584476 0.01733278 0.041972496 -0.20434983
0.08199455 0.53424126 -0.26037243 0.1573208 -0.20904581 -0.020760931 -0.07270342 -0.030489523
0.14336337 0.037568286 -0.039951257 0.02232441 -0.2418599 -0.07322033 -0.094091214 0.2569983
-0.5604961 0.012750078 -0.08146797 0.13018084 0.18824835 0.083115615 -0.024078958 0.19567102
0.011897625 -0.15961044 -0.19037665 0.042736925 -0.036771882 0.30356205 -0.000969282 -0.26338422
0.1429323 -0.16165797 0.17121921 0.20708379 -0.25163072 0.19472569 -0.2587743 0.14500134
-0.042936925 0.10551261 -0.23707429 0.09336888 -0.037576087 -0.41671935 0.06832935 0.08310613
00000000: c94e a93d 73be acbe e7bc 963e 1c80 9a3d
00000010: f47b 74be a583 6e3e 557f eebd 9c09 8fbd
00000020: 8c2e 083d 71c2 863d 6d64 febd de76 973d
00000030: e61e 39be 3fa5 f33d f870 ee3d 46c4 0a3e
00000040: 7c09 e1be 6025 d83d bdef 3e3e 26a7 223e
00000050: eee3 8d3e a520 72be b7c9 e1be e686 b7bd
00000060: f2d4 883e 575f e7bd c770 95be 314d 543d
00000070: 0584 babd b825 9f3d 9bf2 453d 09ff 783e
00000080: be8e 8fbd 2c37 05be 6fe3 57bd c8d5 b23e
00000090: 738b 4bbe ea48 523d 9c48 853c f071 ffbd
000000a0: 8103 533e 247a 83be 2b83 06bd 92f3 a4be
000000b0: 27b4 85be d945 623b 88d9 1c3d bdc2 2e3d
000000c0: d8c4 32be cf4a 08bf 6e67 5e3e a709 123e
000000d0: 16a7 463e 2a81 62be 2d14 363e 6e5c fa3d
000000e0: 0f32 04bc c31c 78be fc72 67be dbc3 83bb
000000f0: f5d4 f5bb 943d 823e 403f 27bd 267f 823e
00000100: 18c5 f13a f345 323d f4c9 afbd 693b c03d
00000110: 4023 513d 6fe1 a0bd d0be 813e 0c01 51be
00000120: 5df0 92bc 2639 52bd 0203 1bbd 7864 59be
00000130: 1ed1 c8bd 3531 9f3e 9a9f 3c3e 4dff 8cbe
00000140: 63ca edbd 2637 6ebe c4b7 b73e bce0 95be
00000150: 63ed 493d 5d89 08be 35fe 0bbb 7305 ccbe
00000160: 3f1f 8fbe 34c4 883e 5512 84be f2a5 21be
00000170: 3130 113e d0b9 853d 9c7a 2ebe e25f c63d
00000180: 6d50 a8be ba0f 4dbe 4d24 123d cb05 00be
00000190: 410e 3dbe b799 463e d24b 963d bc57 c1be
000001a0: 9efa 9a3d 7239 ea3c 6205 96bc c04a 033b
000001b0: 25b4 6c3d aa52 833e 503a 5ebd 71b0 4c3c
000001c0: 643d b5bd 2598 7abe 8aa6 42bd 3d73 99bd
000001d0: 6c39 a9be 67f5 dc3e 7601 573d 05e0 143e
000001e0: 5977 53be fb24 c7bd 3e06 c4bd 6035 173d
000001f0: ad4d eb3d 8f22 a53e 58d9 ca3d 2447 37be
00000200: 32ca 3f3e 28e1 94be 35f1 5cba f755 7d3d
00000210: ad28 63bc ae2b c6bd add0 febe 71c0 e9bc
00000220: 776d 373d c302 63bd 5ab1 53be eff8 413c
00000230: a9c6 56bd ab9c b0be ecfc b23d a1fd 26be
00000240: 2641 903e e691 103e 54a8 593d 4326 e1be
00000250: e63f 2fbe e2ec aabd c8bb 1e3e c034 07bd
00000260: 9fa4 043e cb53 cabe bcb8 043f db47 623d
00000270: 6854 afbd 52e3 343d ab59 8e3e 7ced 173d
00000280: 97f0 2abe 08b1 9f3e 7bc2 6ebe 4a84 c4bd
00000290: cc25 4dbe c47f 863e 3dab 0f3e 381a 603d
000002a0: de1f 9f3e d24d 543e 9a06 abbc a19c 5a3e
000002b0: 5a91 083e 09fd 993c dbdf 1c3c f871 bf3d
000002c0: 6628 bbbd 8e44 babc 8ba9 843d 2207 02be
000002d0: b9ea 1fbf 7fba a8be 93fa cb3d 78cd 2b3e
000002e0: 1c12 22be 84b1 61bd 562f b33c 38ee d2bd
000002f0: 0fd8 a1be fc4f b13d ca89 77be f071 c93e
00000300: 8595 eebd 2ba5 2abe 116b d23d a004 8c3e
00000310: 3ad4 ffbe 4cdc 473d 454f 583e 4009 8e3e
00000320: 253e 163e f90e 843e 45a5 9a3d ea99 b93e
00000330: 424a c43d 79fd 8d3c 5aeb 2b3d 1541 51be
00000340: c2ec a73d 09c4 083f 894f 85be b418 213e
00000350: 1b10 56be d412 aabc 88e5 94bd 2ac5 f9bc
00000360: d9cd 123e 34e1 193d eea3 23bd aee1 b63c
00000370: 1faa 77be 8af4 95bd e5b2 c0bd 4895 833e
00000380: ac7c 0fbf b4e5 503c aed8 a6bd 204e 053e
00000390: 2dc4 403e 8538 aa3d 3c41 c5bc fc5d 483e
000003a0: 42ee 423c eb70 23be 19f2 42be ea0c 2f3d
000003b0: 1d9e 16bd 7c6c 9b3e 6a17 7eba 4cda 86be
000003c0: d85c 123e ab89 25be 1754 2f3e c60d 543e
000003d0: bed5 80be 2c66 473e 117e 84be 3b7b 143e
000003e0: a1de 2fbd ff16 d83d 9ac3 72be 2f38 bf3d
000003f0: 62e9 19bd 3d5c d5be 42f0 8b3d 8c33 aa3d

network_body.linear_encoder.seq_layers.2.bias f4 [128]
-0.004991338 -0.007994013 -0.0009645531 0.017291347 -0.00572776 -0.0032137132 -0.00090241054 0.0034579632
-0.0067813406 0.00033340525 -0.0068258317 -0.008717357 0.0038431464 -0.0022699402 -0.0032235424 0.0034605812
0.0010086924 -0.0033378901 -0.00092073664 -0.0071473173 -0.005050046 -0.007426914 0.0035997005 0.000424839
-0.00208124 0.004742204 -0.008704655 -0.0051588393 -0.008269415 -0.001914426 -0.0011222899 -0.007044941
-0.0041965526 -0.009358065 -0.0015022156 -0.0109906625 -0.005485292 0.002475336 -0.002163346 -0.0069544287
-0.0018547634 0.0013025383 -0.0010955905 -0.0011585269 -0.008824723 -0.0037993446 -0.009107513 0.0018604663
-0.00069590536 -0.001111771 0.0025966454 -0.009519962 -0.0051742704 -0.0040603504 -0.003419446 -0.010292815
-0.0042076604 -0.014786508 -0.0014658322 -0.004318681 0.0012475328 0.0031272501 -0.0007160518 -0.0031995422
-0.0029819212 -0.0026689395 -0.0024284897 0.0036918847 -0.005525788 0.0024201712 0.0041540116 -0.0055324105
-0.0057244324 -0.005493439 -0.00091995485 -0.0125836795 -0.0043923953 -0.009540668 0.0006476092 0.0003596882
-0.0053695412 -0.003471157 -0.010835348 0.0031242312 -0.011978423 -0.0023597837 -0.00351385 -0.0044213673
0.0013138931 -0.0036021972 0.0023892135 0.0018387717 -0.003944515 0.002163857 -0.005241049 0.003529467
-0.007867559 -0.001410175 -0.011124851 -0.0073376535 -0.0038282624 -0.0033355043 -0.006173151 -0.0026887194
-0.015916213 -0.0069617955 -0.0023729254 -0.008476995 0.0005295883 -0.0040382766 0.0007487855 -0.004269351
-0.008485863 -0.0003751498 -0.0043854825 0.001798666 -0.0011052379 0.004271121 -0.0065065455 -0.0027668916
-0.0028371613 0.0026226747 -0.0027247581 0.0001068554 0.0018303621 -0.0047973827 0.005240798 -0.0029052803
00000000: 618e a3bb 52f9 02bc 10da 7cba 95a6 8d3c
00000010: efaf bbbb 299d 52bb bf8f 6cba ff9e 623b
00000020: 0236 debb e5cc ae39 3aab dfbb 3fd3 0ebc
00000030: 4cdd 7b3b 47c3 14bb 1142 53bb ebca 623b
00000040: 1a36 843a 81c0 5abb 975d 71ba 0b34 eabb
00000050: db7a a5bb 785d f3bb f4e8 6b3b edbc de39
00000060: 6a65 08bb 7e64 9b3b f89d 0ebc 7b0b a9bb
00000070: 717c 07bc 7aed faba cd19 93ba 40d9 e6bb
00000080: 3c83 89bb 9252 19bc fee5 c4ba 2e12 34bc
00000090: f7bd b3bb 3f39 223b ecc6 0dbb fae1 e3bb
000000a0: 881b f3ba efb9 aa3a eb99 8fba b6d9 97ba
000000b0: 9295 10bc 6dfe 78bb ae37 15bc e4da f33a
000000c0: 6b6d 36ba d8b8 91ba 7b2c 2a3b 9df9 1bbc
000000d0: ed8c a9bb b00c 85bb c918 60bb 32a3 28bc
000000e0: 6ae0 89bb 1c43 72bc 2b21 c0ba b983 8dbb
000000f0: 4184 a33a 8df2 4c3b 6cb5 3bba 69af 51bb
00000100: 566c 43bb 60e9 2ebb 4c27 1fbb 8cf3 713b
00000110: ab11 b5bb bc9b 1e3b 601e 883b 3949 b5bb
00000120: 0594 bbbb 4e02 b4bb 2029 71ba c72b 4ebc
00000130: 15ee 8fbb 7650 1cbc 51c4 293a 8894 bc39
00000140: faf2 afbb 5a7c 63bb be86 31bc e7bf 4c3b
00000150: 2641 44bc 9aa6 1abb 9f48 66bb 1ee1 90bb
00000160: f036 ac3a d712 6cbb 5a94 1c3b f102 f13a
00000170: fd40 81bb 7fcf 0d3b 1bbd abbb a14e 673b
00000180: efe6 00bc 9fd5 b8ba 0245 36bc b370 f0bb
00000190: 96e3 7abb 7a98 5abb 2548 cabb 3a35 30bb
000001a0: b862 82bc c61f e4bb 1583 1bbb 18e3 0abc
000001b0: 12d4 0a3a 8553 84bb 254a 443a e9e5 8bbb
000001c0: 4a08 0bbc c1af c4b9 18b4 8fbb 37c1 eb3a
000001d0: a1dd 90ba c3f4 8b3b dc34 d5bb bd54 35bb
000001e0: abef 39bb 2ee1 2b3b db91 32bb 8e17 e038
000001f0: c3e8 ef3a 5d33 9dbb 00bb ab3b 8466 3ebb

network_body.linear_encoder.seq_layers.2.weight f4 [128, 128]
0.06705357 0.0070054834 0.15357818 0.009387146 0.0057314965 0.14140095 -0.02791823 0.11149135
-0.014521164 -0.025213039 0.030030256 0.024318933 0.14808528 -0.06709473 -0.013797668 0.14984319
0.06616076 0.13640688 -0.015457981 -0.15371376 -0.19144961 -0.028307939 0.10553798 -0.035506036
-0.0089855 0.016182983 0.16631576 0.10162346 0.008646348 -0.115373954 0.05316479 0.026167296
0.057293188 -0.0045511904 -0.13894519 0.13334613 -0.1293707 -0.18122545 0.087746955 -0.04574743
-0.111544766 -0.0662325 -0.011398192 -0.20625144 -0.04089839 -0.019719794 0.1009689 -0.12240993
-0.010250495 -0.0920321 -0.023382273 -0.056865174 -0.06556186 -0.11836268 0.12283188 -0.044279184
-0.06453037 -0.111572355 -0.073368885 -0.012610387 0.04892978 0.005316989 0.049790468 0.09538247
-0.049209673 -0.011067514 -0.058146637 -0.037598416 0.0077257846 -0.011692416 0.06179464 0.09484107
0.057285774 0.11410038 -0.11173323 0.21246186 0.03292705 0.038650043 -0.14372331 -0.25201187
-0.10767933 0.03190412 0.0047816443 0.13802232 -0.07612333 -0.13976623 -0.15296978 0.10439854
0.039502498 -0.099692255 -0.12343431 -0.20688389 0.01128565 0.016374154 -0.026931535 -0.07045336
-0.20530622 0.01175233 0.0075399233 0.02558507 -0.011396836 0.02701904 -0.0026439154 0.17916635
0.16537929 0.16738497 -0.13987994 -0.02859788 0.065396205 -0.012037089 0.009040694 0.018074105
-0.13565916 -0.12359493 0.024531089 -0.08009432 0.089229695 -0.042376958 0.18996853 0.063554354
-0.08038316 0.059487727 -0.15662512 -0.06511319 -0.01110157 -0.043519605 -0.16474499 0.021521538
0.03807968 -0.04291846 -0.16624354 0.039294153 -0.068584986 0.03276597 -0.006202482 -0.12140189
0.12556663 0.07105238 0.01885902 0.112363845 -0.20220497 -0.07737007 -0.06304733 -0.11250475
0.06944587 -0.011881715 0.05220246 -0.060332693 0.050933287 0.0097750295 -0.07974231 -0.16508931
-0.06557069 0.23782802 0.0010113051 -0.08952871 0.06259708 0.005208887 -0.11262634 0.19511783
-0.052104253 0.051422264 0.0342019 0.06573881 0.041710656 0.02216331 -0.05868985 -0.13611129
0.12797743 0.04444496 -0.09150336 0.027777402 0.012977796 0.005823651 0.026061095 -0.11980248
-0.014104943 -0.09511416 0.052334465 0.03223704 0.0141982725 -0.06003281 0.034204807 -0.062653854
-0.081324615 -0.068967864 0.04083291 -0.1431781 -0.037369203 -0.022602519 -0.13439573 -0.075570665
-0.08030528 0.044146076 -0.05766518 -0.08562655 0.05918017 -0.07621267 0.15852314 0.054634906
-0.03411174 0.0021118857 -0.040724844 -0.029986026 0.030725136 -0.13499905 -0.006033251 -0.028743574
0.008152836 -0.037087042 0.028758867 -0.10726008 0.06479656 -0.06613393 -0.04376382 -0.1298175
-0.081021436 0.10146578 -0.06564701 0.03775421 0.11685995 -0.06304264 0.071951464 -0.024600908
-0.22870599 0.13166805 0.08267799 0.04891561 -0.12620811 0.01412521 0.000443125 -0.036062963
-0.09159084 -0.0031668022 -0.107950695 -0.055480417 -0.012915748 0.012995812 -0.05015006 -0.050172076
0.07326909 -0.0071326075 0.028292984 -0.009752525 -0.01815345 -0.022013107 0.01369128 0.036687292
0.06870661 0.0313915 -0.0040108548 -0.00070410524 0.053980906 0.031020455 0.15373364 0.03131192
00000000: 6253 893d 418e e53b 9943 1d3e 8bcc 193c
00000010: 47cf bb3b 69cb 103e c6b4 e4bc 9455 e43d
00000020: 2dea 6dbc 938b cebc 0302 f63c 8038 c73c
00000030: aba3 173e f668 89bd 9d0f 62bc 7e70 193e
00000040: 4b7f 873d 3fae 0b3e 7943 7dbc 2467 1dbe
00000050: 5e0b 44be 0de6 e7bc 4c24 d83d c76e 11bd
00000060: eb37 13bc 2d92 843c ae4e 2a3e f61f d03d
00000070: 69a9 0d3c 2e49 ecbd 53c3 593d cc5c d63c
00000080: 43ac 6a3d 2722 95bb a647 0ebe e38b 083e
00000090: c179 04be 2a93 39be adb4 b33d a861 3bbd
000000a0: 9571 e4bd e8a4 87bd 7bbf 3abc 9433 53be
000000b0: 1285 27bd 688b a1bc c8c8 ce3d 0fb2 fabd
000000c0: b1f1 27bc 537b bcbd 2e8c bfbc 75eb 68bd
000000d0: 4c45 86bd 2268 f2bd 488f fb3d 175e 35bd
000000e0: 8028 84bd 0c80 e4bd 6d42 96bd cc9b 4ebc
000000f0: 986a 483d 233a ae3b 17f1 4b3d e257 c33d
00000100: 1590 49bd 8554 35bc 2b2b 6ebd cc00 1abd
00000110: 9428 fd3b 8c91 3fbc 601c 7d3d 093c c23d
00000120: 7da4 6a3d 76ad e93d 64d4 e4bd 9a8f 593e
00000130: 84de 063d 824f 1e3d 342c 13be b307 81be
00000140: fb86 dcbd e5ad 023d 57af 9c3b b955 0d3e
00000150: 8ce6 9bbd e11e 0fbe 1ca4 1cbe e7ce d53d
00000160: 5fcd 213d 742b ccbd 21cb fcbd 5fd9 53be
00000170: 72e7 383c 1723 863c 869f dcbc da49 90bd
00000180: cb3b 52be d88c 403c 7611 f73b c897 d13c
00000190: cbb9 3abc 0957 dd3c 8a45 2dbb 6277 373e
000001a0: 3059 293e f766 2b3e b03c 0fbe 1a46 eabc
000001b0: 72ee 853d 3637 45bc 6b1f 143c 2510 943c
000001c0: 3cea 0abe 571f fdbd 6cf5 c83c 7e08 a4bd
000001d0: 0fbe b63d 7693 2dbd 1c87 423e c928 823d
000001e0: ed9f a4bd 67a9 733d 5662 20be 105a 85bd
000001f0: 5ce3 35bc 9d41 32bd e9b2 28be f04d b03c
00000200: 70f9 1b3d 44cb 2fbd bf3b 2abe e8f2 203d
00000210: 4976 8cbd 9c35 063d 313e cbbb 8ea1 f8bd
00000220: 8a94 003e e983 913d 3b7e 9a3c 041f e63d
00000230: d20e 4fbe 3374 9ebd f51e 81bd e468 e6bd
00000240: a339 8e3d 86ab 42bc 3fd2 553d 6a1f 77bd
00000250: 6c9f 503d 7227 203c f04f a3bd 2c0d 29be
00000260: ed49 86bd 3089 733e c58d 843a d45a b7bd
00000270: e632 803d 50af aa3b a3a8 e6bd f8cc 473e
00000280: 456b 55bd 27a0 523d 4b17 0c3d 12a2 863d
00000290: cbd8 2a3d d48f b53c c564 70bd c260 0bbe
000002a0: 840c 033e eb0b 363d 1d66 bbbd 6f8d e33c
000002b0: d2a0 543c 53d4 be3b 147e d53c 015b f5bd
000002c0: 6b18 67bc 36cb c2bd aa5c 563d fd0a 043d
000002d0: df9f 683c f7e4 75bd 571a 0c3d aa50 80bd
000002e0: 858d a6bd 063f 8dbd 6940 273d 489d 12be
000002f0: 7310 19bd eb28 b9bc 099f 09be cbc4 9abd
00000300: 1877 a4bd 84d2 343d 5332 6cbd f95c afbd
00000310: e866 723d 6315 9cbd e453 223e dac8 5f3d
00000320: c0b8 0bbd 9067 0a3b 18cf 26bd 41a5 f5bc
00000330: 48b3 fb3c 313d 0abe 94b2 c5bb a577 ebbc
00000340: 7993 053c 95e8 17bd b797 eb3c 2cab dbbd
00000350: 0fb4 843d 3a71 87bd b141 33bd e1ee 04be
00000360: 91ee a5bd 4acd cf3d f171 86bd 29a4 1a3d
00000370: 4554 ef3d 801c 81bd 4a5b 933d d887 c9bc
00000380: e731 6abe fdd3 063e 1453 a93d bc5b 483d
00000390: b33c 01be 6d6d 673c 3b53 e839 c2b6 13bd
000003a0: fa93 bbbd 208a 4fbb 4115 ddbd 6f3f 63bd
000003b0: 939c 53bc 63ec 543c 266a 4dbd 3c81 4dbd
000003c0: 1b0e 963d a6b8 e9bb b0c6 e73c 0ec9 1fbc
000003d0: 8bb6 94bc d554 b4bc 6451 603c 6a45 163d
000003e0: 0db6 8c3d 6094 003d 7d6d 83bb b493 38ba
000003f0: 151b 5d3d 9c1e fe3c 5a6c 1d3e ee40 003d
