Assets/Spaceship.onnx (onnx, 82660 bytes, 7 tensors)

action_model._continuous_distribution.log_sigma f4 [1, 7]
0.003673877 -5.6679877e-05 0.011127085 0.008975233 0.013674756 0.0106434375 -0.011610108
00000000: 6ec5 703b 8ebb 6db8 614e 363c db0c 133c
00000010: 150c 603c d061 2e3c 5338 3ebc

action_model._continuous_distribution.mu.bias f4 [7]
-0.0024821255 -0.00067339576 0.0010072374 0.0012595347 0.001850112 0.0023350047 0.0012378937
00000000: 28ab 22bb d386 30ba 4705 843a f916 a53a
00000010: 757f f23a e106 193b d240 a23a

action_model._continuous_distribution.mu.weight f4 [7, 128]
-0.025891095 0.0027641563 -0.015720917 -0.0078036385 -0.0032188015 0.006388802 -0.0106738955 -0.001939836
0.0006615299 -0.020179471 -0.0088246185 0.0007643167 0.005408636 0.019288369 -0.013901627 -0.0040498814
-0.015989877 -0.008819024 -0.011386809 0.0070954836 0.009669948 -0.017105278 -0.024590632 0.02732977
0.013150208 -0.017851412 0.020033704 -0.018898286 -0.003604713 -0.01122644 0.008696279 -0.003958291
-0.008697857 -0.016088914 -0.004154149 5.3242755e-05 0.019835679 0.013684964 -0.009987508 0.00027565446
0.0066396114 -0.02925076 0.0067026145 0.016685491 0.007517637 -0.019463789 0.035071064 -0.017840222
-0.00655885 -0.0072720386 0.011657571 -0.022289755 -0.014732113 0.035909247 0.0059080697 -0.019736134
0.0093238065 -0.0017190595 -0.010121911 0.013577392 -0.016256 0.014912607 -0.010992294 0.02725665
-0.0054360665 0.03958305 -0.024689706 0.0015879896 0.015946181 0.009868551 -0.012638644 0.0049356455
-0.009394806 -0.010231149 0.019724112 0.009087081 -0.010864165 0.011445824 -0.01630676 -0.016646538
0.005332392 -0.0051224167 -0.011996808 -0.00863235 -0.020578992 0.0006490429 0.0009502347 0.0010376391
-0.0040608067 -0.016337803 0.030574167 0.024503238 0.020107884 -0.010967449 0.020278176 0.004626449
0.010904111 0.0054018144 0.001903765 -0.004361292 0.004111028 -0.007605758 -0.031143341 0.02392659
0.02630731 0.01844947 0.0139780175 -0.019953523 -0.028696807 -0.008012902 0.018100686 -0.0105917305
-0.018845921 0.0065752952 0.0015432802 -0.028648574 -0.0026884896 0.019491423 0.019998766 -0.0119245825
-0.01095169 -0.051861715 -0.031192014 -0.0072910083 -0.0006160833 -0.032624695 0.028687308 0.010468912
-0.011572197 -0.028831283 -0.041428585 -0.016578475 0.027801724 0.019627616 0.0059531163 0.00714763
0.018605463 0.00210527 0.011538699 -0.045935016 -0.03317168 0.016938547 0.020986928 -0.018096788
-0.022104893 0.009667696 -0.03225513 -0.012356986 0.026274681 0.0109870145 -0.003069126 -0.025293075
-0.0072373454 0.04439186 -0.0040410096 0.007993415 -0.025220128 0.041197196 0.0004548726 -0.00785375
0.014729266 0.0054011648 -0.0051996848 -0.0148523105 -0.02241357 0.006075249 -0.0038752025 -0.017988442
-0.0055738557 0.032953307 -0.015208099 -0.0031821996 -0.011626253 -0.002887882 -0.022712376 -0.008944967
0.03348029 0.017630512 -0.0064372425 0.016531488 -0.019221561 0.014679498 -0.019116495 0.027778964
-0.01935178 0.020590702 -0.012207611 0.003625416 -0.026777174 0.040866148 0.0197433 0.0015041532
-0.0061435676 0.0022765356 2.127765e-05 0.017772 -0.030249884 -0.010913829 0.019140415 0.0029318442
-0.007495865 -0.024942474 0.012152101 0.041466624 -0.014913365 0.00358004 -0.016231613 -0.020747634
-0.014789965 0.0012316646 0.016087005 0.0046896483 0.023493858 -0.015645612 -0.019954147 -0.0005713729
-0.018030679 -0.0074210325 -0.02929999 0.016199093 0.004816411 0.0022676706 0.014264719 0.011157421
-0.012293301 -0.029614955 -0.008950036 -0.0033865348 0.017531471 0.0024436135 0.03942285 0.00699989
-0.02904559 0.027641272 0.008068731 0.0068330574 0.00078782544 0.00903812 -0.0049005924 -0.008135105
-0.001483742 -0.003211403 0.0019953917 -0.0013396961 0.004569766 -0.013457011 -0.0066862996 -0.0031310362
-0.012629134 0.01174025 -0.009807394 -0.021866051 0.016154328 -0.011169186 -0.02299476 0.021883892
00000000: 9019 d4bc d926 353b 27c9 80bc aab5 ffbb
00000010: 87f2 52bb 2859 d13b 90e1 2ebc 1842 feba
00000020: 856a 2d3a 6b4f a5bc 2295 10bc 6d5c 483a
00000030: ed3a b13b a402 9e3c a6c3 63bc deb4 84bb
00000040: 34fd 82bc ab7d 10bc bd8f 3abc 3b81 e83b
00000050: b46e 1e3c 5e20 8cbc 4b72 c9bc afe2 df3c
00000060: f873 573c 203d 92bc b91d a43c 94d0 9abc
00000070: 0c3d 6cbb 1aef 37bc d67a 0e3c 8db4 81bb
00000080: 7581 0ebc e6cc 83bc 871f 88bb f950 5f38
00000090: 6f7e a23c e636 603c a5a2 23bc b785 9039
000000a0: 1991 d93b 4a9f efbc 9ba1 db3b 03b0 883c
000000b0: 8356 f63b 8672 9fbc ada6 0f3d a825 92bc
000000c0: 9feb d6bb 484a eebb 66ff 3e3c 0199 b6bc
000000d0: f65e 71bc 9315 133d 7b98 c13b acad a1bc
000000e0: e1c2 183c 1152 e1ba 5fd6 25bc b673 5e3c
000000f0: 4e2b 85bc 0254 743c 0619 34bc 5749 df3c
00000100: 0821 b2bb d621 223d 1142 cabc 1724 d03a
00000110: 91a1 823c b4af 213c 5112 4fbc 32bb a13b
00000120: acec 19bc 8da0 27bc 7694 a13c fbe1 143c
00000130: 9cff 31bc 4487 3b3c c195 85bc 525e 88bc
00000140: 59bb ae3b f2d9 a7bb 438e 44bc b36e 0dbc
00000150: 4695 a8bc 8824 2a3a 2c19 793a 6401 883a
00000160: 8410 85bb dbd6 85bc ad76 fa3c 04bb c83c
00000170: 4ab9 a43c d1b0 33bc 6b1e a63c 7899 973b
00000180: 28a7 323c b401 b13b c187 f93a 2be9 8ebb
00000190: cdb5 863b b939 f9bb 5220 ffbc b201 c43c
000001a0: 6e82 d73c 5823 973c 0e04 653c 9275 a3bc
000001b0: 9115 ebbc 8c48 03bc e447 943c f088 2dbc
000001c0: c362 9abc 9375 d73b e447 ca3a 6ab0 eabc
000001d0: 5f31 30bb 7aac 9f3c 74d4 a33c 535f 43bc
000001e0: b86e 33bc f36c 54bd 6586 ffbc 69e9 eebb
000001f0: a780 21ba 79a1 05bd a501 eb3c cd85 2b3c
00000200: 5099 3dbc 952f ecbc 05b1 29bd 95cf 87bc
00000210: 71c0 e33c 18ca a03c 5c12 c33b ab36 ea3b
00000220: 7c6a 983c 92f8 093b d00c 3d3c 5b26 3cbd
00000230: 07df 07bd b5c2 8a3c c7ec ab3c b73f 94bc
00000240: 5215 b5bc 4265 1e3c f51d 04bd f574 4abc
00000250: 003e d73c e102 343c 6423 49bb 6c33 cfbc
00000260: 4127 edbb 3dd4 353d 726a 84bb d0f6 023c
00000270: 719a cebc 64be 283d f87b ee39 04ad 00bc
00000280: 0553 713c 41fc b03b 1e62 aabb 1b57 73bc
00000290: aa9c b7bc e212 c73b 1cf7 7dbb 7f5c 93bc
000002a0: e4a4 b6bb 0cfa 063d 642b 79bc 738c 50bb
000002b0: 0a7c 3ebc 9f42 3dbb 4e0f babc e98d 12bc
000002c0: a122 093d dd6d 903c 81ef d2bb 0b6d 873c
000002d0: 8976 9dbc 4782 703c 329a 9cbc b690 e33c
000002e0: a087 9ebc d5ad a83c 6f02 48bc 6398 6d3b
000002f0: ce5b dbbc 4363 273d b3bc a13c 0227 c53a
00000300: fb4f c9bb ee31 153b 687d b237 9696 913c
00000310: 9bce f7bc ebcf 32bc 5ccc 9c3c 2f24 403b
00000320: e09f f5bb 2954 ccbc 9b19 473c e8d8 293d
00000330: 3057 74bc 1b9f 6a3b 29f8 84bc f1f6 a9bc
00000340: 9c51 72bc ce6f a13a e5c8 833c 9fab 993b
00000350: 3176 c03c 3a2b 80bc e176 a3bc 30c8 15ba
00000360: 13b5 93bc 222c f3bb 8806 f0bc f6b3 843c
00000370: fcd2 9d3b 339d 143b 91b6 693c 9ecd 363c
00000380: d769 49bc 109b f2bc 2ca3 12bc a0f0 5dbb
00000390: 299e 8f3c 0825 203b db79 213d 555f e53b
000003a0: 04f1 edbc f36f e23c b632 043c d7e7 df3b
000003b0: 1286 4e3a 9f14 143c 2695 a0bb 1a49 05bc
000003c0: 1f7a c2ba 6776 52bb 1ec5 023b be98 afba
000003d0: fabd 953b cc7a 5cbc bf18 dbbb 1232 4dbb
000003e0: 6dea 4ebc 2d5a 403c 31af 20bc 6f20 b3bc
000003f0: 1556 843c f6fe 36bc 825f bcbc d945 b33c

network_body.linear_encoder.seq_layers.0.bias f4 [128]
0.0039075953 0.0013470298 -0.0051643956 -0.009415014 0.002922071 -0.0050791595 -0.010690532 -0.0017769597
-0.0038054697 0.0038739464 -0.0064048856 -0.0010121855 -0.0006463515 -0.0009838587 -0.0049822736 0.0022850262
-0.0023833653 4.7454064e-06 0.0029597995 0.0004603861 -0.0011848337 -1.8891664e-05 -0.00073156116 -0.012202523
-0.0015171376 0.0012405345 -0.011351894 -0.00211264 -0.0028088645 0.0027617228 0.00025111076 -0.0030433582
7.522796e-05 0.0020046772 -0.004805194 -0.00014080042 -0.008971016 -0.003178224 -0.0019989186 -0.0022907269
-0.004396581 -0.00034341397 0.001736929 -0.003573362 0.0022481962 -0.0049415044 0.0021751227 -0.004865148
0.0011036472 0.0071256026 -0.0010933421 -0.007536958 0.0021172247 3.9098468e-05 -0.0006957179 0.003961571
-0.004396389 -0.0015141994 -0.0074506337 0.0014471227 -0.004256778 -0.004778405 -0.0041222563 0.007802325
0.0024743148 -0.00056259945 -0.002749239 -0.0018333182 -0.010985914 -0.00017542133 -0.0066358354 -0.0026654704
-0.00083341886 0.0012292514 -0.0011098941 -0.002667346 -0.006658127 0.002230371 -0.00189899 0.002808659
0.0001291451 0.0013027454 -0.0011711668 -0.0048030126 -0.0031488985 -0.0016486499 -0.0039898744 0.00023830592
-0.0003956736 0.0050175767 0.0061254324 -0.00079820625 -0.0019456525 -0.0021642225 -0.0036309434 -0.0023122854
0.00025638053 0.0009003161 0.007440425 -0.001406326 -0.0071687405 -0.0027427652 0.001729746 -0.0050984276
-0.0025922928 -0.002994329 -0.0015048462 -0.0007368003 -0.011353887 0.005348111 0.0023019547 -0.0016485407
-0.005082735 -0.0033802714 -0.0027874303 -0.004137527 -0.00354277 -0.0007260403 -0.0039402535 -0.0030774467
-0.0022509813 -0.004422428 -0.0015212394 -0.002731823 -0.0040135076 0.0017168942 0.00023004366 -0.0027510608
00000000: 490b 803b d28e b03a 173a a9bb 6e41 1abc
00000010: 3780 3f3b 146f a6bb 5727 2fbc e0e8 e8ba
00000020: 3065 79bb 09e2 7d3b 13e0 d1bb 4fab 84ba
00000030: ea6f 29ba d2f4 80ba 5742 a3bb 61c0 153b
00000040: 3c32 1cbb bb3a 9f36 32f9 413b fa5f f139
00000050: 6c4c 9bba 8a79 9eb7 3dc6 3fba 17ed 47bc
00000060: b1da c6ba 6e99 a23a 4bfd 39bc 3874 0abb
00000070: ed14 38bb 05fe 343b 84a7 8339 1473 47bb
00000080: b4c3 9d38 e760 033b e474 9dbb d3a3 13b9
00000090: 2bfb 12bc c049 50bb 4a00 03bb 0520 16bb
000000a0: 3211 90bb 3e0c b4b9 aba9 e33a 112f 6abb
000000b0: 7956 133b 58ec a1bb 818c 0e3b d26b 9fbb
000000c0: 41a8 903a e37d e93b 794e 8fba 96f8 f6bb
000000d0: 23c1 0a3b a9fd 2338 d760 36ba 11d0 813b
000000e0: 950f 90bb 1a78 c6ba 7224 f4bb 61ad bd3a
000000f0: 717c 8bbb 2b94 9cbb fe13 87bb a5aa ff3b
00000100: 1d28 223b 697b 13ba 942c 34bb f34b f0ba
00000110: 43fe 33bc 4ef1 37b9 6c71 d9bb 2caf 2ebb
00000120: cb79 5aba d51e a13a de79 91ba a4ce 2ebb
00000130: 6b2c dabb 6b2b 123b 88e7 f8ba 7b11 383b
00000140: 206b 0739 e2c0 aa3a d681 99ba 9762 9dbb
00000150: c05d 4ebb 8317 d8ba 7ebd 82bb c2e1 7939
00000160: 6972 cfb9 7c6a a43b dab7 c83b b73e 51ba
00000170: 4405 ffba a1d5 0dbb 1ff5 6dbb b689 17bb
00000180: d06a 8639 3103 6c3a cfce f33b 7854 b8ba
00000190: c1e7 eabb f7bf 33bb a5b8 e23a b610 a7bb
000001a0: 75e3 29bb 813c 44bb 423e c5ba d525 41ba
000001b0: a705 3abc 353f af3b 64dc 163b d913 d8ba
000001c0: 128d a6bb 8b87 5dbb 52ad 36bb 1894 87bb
000001d0: d12d 68bb bd53 3eba 3e1d 81bb fdae 49bb
000001e0: 3385 13bb 04ea 90bb 5364 c7ba 6208 33bb
000001f0: be83 83bb 6909 e13a e037 7139 244b 34bb

network_body.linear_encoder.seq_layers.0.weight f4 [128, 20]
0.20032652 -0.25766924 0.098550476 0.29699945 0.014443313 -0.29465124 0.18795691 0.22704332
0.117412835 -0.043472018 0.116043724 0.051090658 -0.1660217 -0.42619225 -0.049061332 -0.04915696
0.29971305 0.007562094 -0.27473837 0.044262473 0.11290636 0.3355725 -0.012087717 -0.11219092
-0.09435436 0.19555129 0.10954872 -0.23464574 0.19183157 0.30904645 -0.106569625 -0.24457242
0.3767175 0.11719943 0.30406666 -0.09848547 0.005809722 -0.27411565 -0.25546688 -0.16214076
0.15644981 0.081678376 0.008246402 -0.020362811 0.039884407 -0.39632392 -0.15744612 0.13447732
0.1684727 0.41935274 -0.26387963 -0.43645024 0.8195901 0.41718277 0.14038467 -0.19188528
0.17687103 0.3666343 0.26976693 0.27210858 0.047082763 0.22220944 0.09202983 0.094588846
-0.27240857 -0.14238465 -0.1850287 0.08904213 0.18939933 0.021005396 0.11102386 0.19709705
0.07742586 -0.00083927566 -0.05774852 -0.070584446 -0.10093696 0.23930538 -0.08787682 0.1481681
-0.082628496 0.047469318 0.3683776 0.1443117 -0.05343222 0.018176457 0.064594805 0.11587332
0.1545356 -0.1744265 -0.13503173 0.073621504 0.19245407 0.12801783 0.58987594 -0.18794493
-0.105627276 -0.0039786478 0.085403524 -0.062730275 0.036148205 -0.0135075515 -0.06914294 -0.36583626
0.38214186 0.15585491 0.29062542 0.026849443 0.27686304 -0.48440617 0.19958238 -0.02432483
-0.11534734 0.06385124 -0.06386337 -0.011178161 -0.045472115 -0.02296193 -0.22160958 0.15944283
0.31085062 0.024543384 0.10936757 -0.3233455 -0.103397354 0.16021767 0.071067944 0.41448167
-0.18670677 -0.1745963 -0.14747688 -0.03008699 0.04154248 0.009820363 0.53235114 0.24648243
-0.3913493 -0.19862184 0.06311342 0.010930833 0.18392888 -0.074757814 -0.33076417 -0.02629105
-0.40805486 -0.33312583 0.19575508 0.19984916 0.66860837 0.34620976 0.067491286 -0.21124148
0.088934004 0.15174143 0.18547252 0.17953914 -0.04094174 0.12732166 0.39866292 0.09080917
0.40329182 0.25388765 -0.16244015 0.0086049475 0.1415904 0.11027773 -0.025333578 -0.21710671
-0.2901019 -0.13741954 -0.06192044 0.29633066 -0.07963175 -0.12903833 0.1753427 -0.023632612
0.17028977 -0.3009395 0.12860379 0.0329331 0.4474266 -0.3229477 -0.28987888 0.15789051
-0.037259933 0.1163263 0.10157454 0.09880609 0.20087297 0.08288389 -0.28305098 -0.17442167
0.12529859 0.29364958 -0.14130755 -0.076445386 0.34706467 -0.034196295 -0.265939 0.15189977
0.05388504 -0.17882559 -0.26949438 -0.08281165 -0.27744964 -0.04570557 -0.41751507 -0.15165593
0.4694935 0.09944022 0.0003851292 -0.41344184 -0.21543017 0.44307503 -0.20837995 -0.03898586
-0.05057017 -0.17037788 0.11580321 -0.46343032 -0.26051614 0.19160554 -0.19652401 0.037877604
-0.07535349 0.22147563 0.17807148 0.035812534 -0.23692998 0.08969293 0.44395015 0.11402018
0.042868484 -0.21321583 -0.37197322 -0.24299163 -0.08481388 -0.10347136 0.28100085 0.029027762
-0.13678367 -0.12855074 -0.18587685 0.026702056 -0.3053512 0.17217283 -0.14151664 0.008797854
0.15604126 0.31577 0.29430386 -0.050099716 -0.011350191 0.026276913 0.3706233 0.1176849
00000000: 6522 4d3e 39ed 83be d5d4 c93d 5010 983e
00000010: a5a3 6c3c 87dc 96be c777 403e 0b7e 683e
00000020: 2476 f03d b70f 32bd 55a8 ed3d 7044 513d
00000030: 9801 2abe df35 dabe 89f4 48bd cf58 49bd
00000040: fd73 993e 71cb f73b 82aa 8cbe 914c 353d
00000050: 733b e73d 29d0 ab3e 8f0b 46bc 5ac4 e5bd
00000060: dc3c c1bd 993e 483e 145b e03d f946 70be
00000070: 7f6f 443e 563b 9e3e 2d41 dabd 3171 7abe
00000080: 1ee1 c03e 4106 f03d a0ae 9b3e c0b2 c9bd
00000090: 7b5f be3b e358 8cbe 8ecc 82be 3a08 26be
000000a0: 6134 203e fe46 a73d eb1b 073c e9cf a6bc
000000b0: d55d 233d f8ea cabe 8e39 21be 6cb4 093e
000000c0: 1c84 2c3e 67b5 d63e 3b1b 87be 6876 dfbe
000000d0: a8d0 513f fb98 d53e 00c1 0f3e 937d 44be
000000e0: ae1d 353e 7eb7 bb3e e41e 8a3e d151 8b3e
000000f0: dbd9 403d df8a 633e 237a bc3d ccb7 c13d
00000100: 2379 8bbe 48cd 11be 2a78 3dbe b85b b63d
00000110: e6f1 413e 8213 ac3c 7a60 e33d cfd3 493e
00000120: 7391 9e3d d602 5cba b689 6cbd 948e 90bd
00000130: 09b8 cebd 780c 753e c3f8 b3bd 61b9 173e
00000140: 2139 a9bd 306f 423d fd9b bc3e 72c6 133e
00000150: bedb 5abd cbe6 943c 484a 843d fe4e ed3d
00000160: 953e 1e3e dc9c 32be c245 0abe dfc6 963d
00000170: ae12 453e 1b17 033e 1c02 173f a374 40be
00000180: 1d53 d8bd 515f 82bb 0be8 ae3d bb78 80bd
00000190: 2410 143d c74e 5dbc d09a 8dbd e44e bbbe
000001a0: 19a8 c33e 6e98 1f3e dbcc 943e 5df3 db3c
000001b0: fec0 8d3e 1604 f8be 535f 4c3e de44 c7bc
000001c0: 3a3b ecbd 70c4 823d ccca 82bd 9b24 37bc
000001d0: f840 3abd a81a bcbc 9fed 62be fb44 233e
000001e0: d027 9f3e 350f c93c 1bfc df3d 8b8d a5be
000001f0: fec1 d3bd 1a10 243e 128c 913d f136 d43e
00000200: 0f30 3fbe 5fc9 32be 2e04 17be fe78 f6bc
00000210: 7328 2a3d 96e5 203c 2a48 083f e465 7c3e
00000220: ef5e c8be 8663 4bbe 9c41 813d 3d17 333c
00000230: da57 3c3e a01a 99bd ec59 a9be 5460 d7bc
00000240: 91ec d0be 788f aabe 0574 483e 42a5 4c3e
00000250: eb29 2b3f 6842 b13e df38 8a3d b04f 58be
00000260: 0823 b63d 1b62 1b3e 82ec 3d3e 1cd9 373e
00000270: 87b2 27bd 9c60 023e 8c1d cc3e 28fa b93d
00000280: 447c ce3e 90fd 813e b656 26be c4fb 0c3c
00000290: 13fd 103e 4ad9 e13d 5d88 cfbc 3951 5ebe
000002a0: 3c88 94be b5b7 0cbe 4aa0 7dbd a7b8 973e
000002b0: f915 a3bd a022 04be 098d 333e 2e99 c1bc
000002c0: 7160 2e3e be14 9abe b6b0 033e dce4 063d
000002d0: 1915 e53e 6759 a5be 016b 94be 0dae 213e
000002e0: df9d 18bd 7c3c ee3d 5006 d03d d95a ca3d
000002f0: a5b1 4d3e 07bf a93d 0fec 90be 989b 32be
00000300: 464e 003e 3d59 963e edb2 10be 668f 9cbd
00000310: 76b2 b13e 6a11 0cbd 2829 88be 9d8b 1b3e
00000320: 8fb6 5c3d 0e1e 37be 2bfb 89be 2899 a9bd
00000330: e10d 8ebe c435 3bbd 89c4 d5be b14b 1bbe
00000340: 7461 f03e 50a7 cb3d 2beb c939 a6ae d3be
00000350: ba99 5cbe bbda e23e 8e61 55be a3af 1fbd
00000360: ab22 4fbd 8a77 2ebe 3c2a ed3d bd46 edbe
00000370: 5f62 85be 3e34 443e 973d 49be 8c25 1b3d
00000380: ee52 9abd 82ca 623e 5f58 363e 2ab0 123d
00000390: c69d 72be edb0 b73d 6f4d e33e 6a83 e93d
000003a0: dd96 2f3d 4055 5abe 4673 bebe ccd2 78be
000003b0: e6b2 adbd cbe8 d3bd 58df 8f3e a1cb ed3c
000003c0: 0511 0cbe cea2 03be 8056 3ebe 45be da3c
000003d0: fe56 9cbe 134e 303e bde9 10be e024 103c
000003e0: 48c9 1f3e 9bac a13e ffae 963e 5c35 4dbd
000003f0: 27f6 39bc ae42 d73c 56c2 bd3e c804 f13d

network_body.linear_encoder.seq_layers.2.bias f4 [128]
0.00071997073 -0.0027086579 0.0017697802 -0.0037997856 -0.00087309384 -0.0060333684 0.0015716254 0.0013605647
-0.0056581693 -0.0009067167 0.0070810653 -0.0008920254 -0.00047948642 -0.0028281403 0.0009306516 -0.0016862439
0.0019677768 -0.0028625324 -0.0018737086 -0.0011089876 0.001143185 -0.0022657686 0.0013590653 -0.0010098108
-0.002890276 -0.0007403911 -0.0010010572 0.0005462799 -0.0018331774 -0.004517472 -0.0030721733 0.0013622153
-0.0057014786 -0.0019624159 0.0029821272 0.0004394227 -0.004192744 -0.0032843284 -0.00036920529 -0.0011062736
-0.0040331087 0.000529713 0.0009992655 -0.00068669766 -0.0026677803 -0.0022883685 -0.0024732281 -1.42916815e-05
-0.00065483927 -0.0014145209 0.0015495957 -0.002657937 -0.0016939082 -0.0048665637 0.001179718 0.004355568
-0.0027749417 -5.8349106e-05 -0.002106825 -0.0027376194 0.0013873735 -0.0032721004 -0.0074647916 -0.004204172
-0.0010327208 -0.0053671217 0.00043118047 -0.00034363059 -0.0020098519 -0.0049425303 -0.003702178 0.0009868101
-0.0012891708 0.0008770841 -0.003942219 -0.00014116091 -0.0010122828 -0.0028486953 0.00033770714 0.0024926404
-0.0007933185 0.001277334 -0.0024882273 -0.00027677798 0.0018668002 -0.002331708 0.0004974683 0.0002457793
0.0027407757 0.0012072166 -0.0024411727 -0.00612608 -0.000547212 -0.0012315708 -0.0016996544 -0.003531292
-0.00039668864 0.00066970143 0.0006941447 -0.004885224 -0.0009454452 -0.0014753096 -0.0024205667 -0.004321305
-0.004782158 -0.00090330926 0.0013298634 -0.0004635199 0.0005060009 0.00020139824 -0.0004326806 0.0021409371
-0.0039544003 -0.0003636894 0.00011843813 -0.0005938094 -0.0028445108 -0.0043193824 -0.0035661939 0.0026589015
-0.00041510555 0.0011640087 0.0018473115 0.00040791725 -0.0012662709 0.0007735692 0.0045915702 -0.00061156374
00000000: 6bbc 3c3a bd83 31bb f8f7 e73a d305 79bb
00000010: 56e0 64ba 90b3 c5bb fffe cd3a fa54 b23a
00000020: 2a68 b9bb bab0 6dba 4808 e83b d0d6 69ba
00000030: 9463 fbb9 5258 39bb f9f6 733a f504 ddba
00000040: d1f5 003b 5399 3bbb 3a97 f5ba 735b 91ba
00000050: ecd6 953a 4a7d 14bb aa22 b23a a15b 84ba
00000060: c96a 3dbb ce16 42ba e835 83ba 3934 0f3a
00000070: 3a47 f0ba 4d07 94bb 8456 49bb 5c8c b23a
00000080: 78d3 babb e09b 00bb cb6f 433b 5162 e639
00000090: 4963 89bb e33d 57bb e591 c1b9 6200 91ba
000000a0: 2b28 84bb 70dc 0a3a c9f9 823a 8003 34ba
000000b0: edd5 2ebb 74f8 15bb e215 22bb 4ec6 6fb7
000000c0: 85a9 2bba 7267 b9ba ce1b cb3a c830 2ebb
000000d0: 2106 deba b277 9fbb c4a0 9a3a 27b9 8e3b
000000e0: ccdb 35bb e0bb 74b8 a812 0abb a269 33bb
000000f0: 88d8 b53a bc70 56bb 369b f4bb 27c3 89bb
00000100: 5c5c 87ba aede afbb 1010 e239 5129 b4b9
00000110: b8b7 03bb f3f4 a1bb 3da0 72bb da57 813a
00000120: 65f9 a8ba 1eec 653a bb2d 81bb 9804 14b9
00000130: 93ae 84ba 2db1 3abb 490e b139 915b 233b
00000140: b4f6 4fba 386c a73a 8711 23bb 831c 91b9
00000150: 6caf f43a 92cf 18bb 8868 023a f0db 8039
00000160: 969e 333b 783b 9e3a 15fc 1fbb 49bd c8bb
00000170: c772 0fba a96c a1ba f0c6 deba 406d 67bb
00000180: a6fa cfb9 e78e 2f3a 43f7 353a 3b14 a0bb
00000190: c1d7 77ba 2d5f c1ba 5fa2 1ebb bc99 8dbb
000001a0: a6b3 9cbb 0fcc 6cba d04e ae3a 9604 f3b9
000001b0: 25a5 043a 6e2e 5339 68d9 e2b9 f74e 0c3b
000001c0: ea93 81bb 91ad beb9 fd61 f838 e0a9 1bba
000001d0: f96a 3abb 9b89 8dbb ceb6 69bb f740 2e3b
000001e0: 86a2 d9b9 a791 983a 7d21 f23a badd d539
000001f0: 00f9 a5ba 5ac9 4a3a e274 963b 5951 20ba

network_body.linear_encoder.seq_layers.2.weight f4 [128, 128]
0.039129894 0.09154026 0.07580573 0.01342909 -0.028538037 0.10125794 -0.15730155 0.05229796
-0.04248812 0.091888905 -0.01809336 0.0028502764 -0.13230082 0.16377558 -0.05962227 0.08995248
0.0043812003 0.18032506 0.011493239 0.01172166 -0.022843868 0.027231388 -0.14060593 -0.09111703
-0.049033854 -0.03899001 0.0054662223 0.10004425 0.031781532 -0.052905153 -0.07188495 -0.024826618
-0.07471177 -0.086967155 -0.05107645 -0.11475405 0.012307873 0.09183704 0.08469875 0.142516
-0.090030536 0.103801325 -0.075474925 -0.0040722922 -0.11715861 -0.0930351 -0.057074104 0.13560086
0.00064297765 0.12761395 0.027768841 -0.13024957 0.006340383 0.056250338 -0.031292584 0.113321215
-0.002466925 -0.05109554 -0.0122628305 0.07059099 0.1697242 0.003924268 -0.021544265 -0.01769018
-0.06467146 -0.10850028 -0.14398128 -0.0855165 -0.0354807 -0.12142795 -0.18296641 0.11296533
0.027160214 -0.057661742 -0.10010911 0.048390824 -0.10275036 0.085401334 -0.056962624 0.009101822
-0.010710227 0.09158514 0.0643326 -0.07595415 0.0005712862 0.0094837 0.10591696 0.093397826
-0.047312528 -0.043558232 -0.084518954 -0.13936596 -0.09338017 -0.033504643 -0.103868775 0.0071701314
0.065239504 0.11318324 -0.023277754 0.054905925 -0.11835761 -0.07422525 0.017682629 0.009622351
-0.06828048 -0.1163515 0.017250596 -9.674127e-05 0.03733725 0.036172803 0.025959525 0.034608886
0.056454852 -0.081274286 -0.047131237 -0.022661583 -0.109083086 -0.1309969 0.057216585 0.068719305
0.04065487 -0.02987875 -0.048532765 -0.02088606 0.17214957 0.06024655 0.005807442 -0.06725793
-0.2254716 0.024054606 0.04169347 0.067261614 -0.10557371 0.06728494 0.016082123 0.07179901
0.044664983 0.047875214 -0.0026345097 -0.011231284 -0.06824556 0.040938128 0.014372062 0.03328833
0.05437485 -0.06460106 0.10524395 0.017217712 -0.12291546 -0.06320594 -0.07638814 -0.13301581
-0.029151812 -0.07984993 0.14948742 -0.0024881966 0.06498378 -0.016520467 -0.009764455 -0.048864797
0.099470556 0.0024980442 -0.029722631 -0.0008898339 -0.03408891 -0.07423517 0.078999735 0.10082744
-0.050973337 -0.014404035 -0.019964997 0.12603682 -0.0008837655 0.024777345 -0.13616453 0.17326196
0.06400193 -0.0832464 0.014344841 -0.099905975 -0.038004313 -0.018980375 0.005209592 0.062134817
0.08463804 0.11968881 0.060147803 -0.046202887 0.13369054 0.10378721 0.12085351 -0.10752008
-0.15057011 0.06450263 -0.040623646 -0.045717463 0.04936266 -0.12270692 -0.02524403 0.030480456
-0.17696026 -0.17888056 0.16426823 0.05538427 0.045475733 0.0741699 0.16463734 -0.07627726
0.00018052792 -0.020281 -0.1167924 0.033013884 -0.09171511 0.08551656 -0.03324571 0.080001965
0.038251843 -0.025910942 0.09130346 -0.13041158 0.1613337 0.10583696 -0.007987394 0.004257774
-0.01901446 -0.04081832 -0.06546653 0.112873234 0.019526213 0.033844177 -0.0040065157 0.120812885
0.10803014 -0.009353423 -0.0054311967 0.107237644 0.03471916 -0.08795436 -0.0887535 0.07942035
0.053249117 0.045488745 -0.0053597316 0.1261017 0.00930307 -0.03759381 -0.025696736 -0.018204039
-0.0042296275 -0.12429305 -0.06950779 -0.12453847 0.10676847 0.027736628 0.09034841 -0.13406444
00000000: ab46 203d 7679 bb3d 0940 9b3d b005 5c3c
00000010: 9ac8 e9bc 5360 cf3d a813 21be 6336 563d
00000020: 0608 2ebd 4030 bc3d 8738 94bc b4cb 3a3b
00000030: de79 07be c9b4 273e 7b36 74bd 0139 b83d
00000040: 2c90 8f3b 22a7 383e 234e 3c3c 350c 403c
00000050: 1023 bbbc 5c14 df3c 00fb 0fbe 919b babd
00000060: b9d7 48bd fdb3 1fbd ff1d b33b 00e4 cc3d
00000070: 5a2d 023d 13b3 58bd 6b38 93bd 3161 cbbc
00000080: 7c02 99bd d61b b2bd 8a35 51bd 2c04 ebbd
00000090: f6a6 493c 0f15 bc3d 8a76 ad3d b7ef 113e
000000a0: ee61 b8bd ca95 d43d 9992 9abd dd70 85bb
000000b0: daf0 efbd 3089 bebd 89c6 69bd f4da 0a3e
000000c0: 808d 283a 3bad 023e 7b7b e33c 2560 05be
000000d0: fdc2 cf3b c166 663d a72c 00bd f414 e83d
000000e0: 22ac 21bb 8f49 51bd 0aea 48bc 0292 903d
000000f0: 2ecc 2d3e 2597 803b 997d b0bc ffea 90bc
00000100: 7872 84bd 6535 debd d46f 13be 4623 afbd
00000110: 3654 11bd 38af f8bd 8c5b 3bbe 5e5a e73d
00000120: 197f de3c b82e 6cbd 0106 cdbd 7535 463d
00000130: c86e d2bd e5e6 ae3d a451 69bd cf1f 153c
00000140: f379 2fbc fd90 bb3d cfc0 833d d98d 9bbd
00000150: 5ec2 153a 8561 1b3c feea d83d 5c47 bf3d
00000160: c8ca 41bd 1e6a 32bd 4618 adbd f3b5 0ebe
00000170: 1a3e bfbd 2a3c 09bd 27b9 d4bd 6cf3 ea3b
00000180: 4a9c 853d 9dcc e73d fdb0 bebc 09e5 603d
00000190: 7a65 f2bd 6803 98bd 29db 903c 11a7 1d3c
000001a0: a3d6 8bbd b249 eebd 1f51 8d3c 93e1 cab8
000001b0: f2ee 183d ef29 143d 12a9 d43c 0cc2 0d3d
000001c0: 343d 673d 2273 a6bd af0c 41bd c9a4 b9bc
000001d0: f466 dfbd 0d24 06be f05b 6a3d b5bc 8c3d
000001e0: b985 263d 48c4 f4bc 4bca 46bd 3e19 abbc
000001f0: fa47 303e 16c5 763d 5b4c be3b 87be 89bd
00000200: 07e2 66be 2a0e c53c c6c6 2a3d 75c0 893d
00000210: 0737 d8bd b0cc 893d a8be 833c 5c0b 933d
00000220: a1f2 363d cd18 443d bda7 2cbb 6b03 38bc
00000230: 54c4 8bbd bdae 273d cc78 6b3c 5859 083d
00000240: 2ab8 5e3d 8f4d 84bd 248a d73d 290c 8d3c
00000250: 1abb fbbd 1e72 81bd 6371 9cbd 4c35 08be
00000260: c8cf eebc 5c88 a3bd 3b13 193e 0311 23bb
00000270: 3716 853d ee55 87bc 18fb 1fbc 7426 48bd
00000280: 38b7 cb3d 3ab6 233b e07c f3bc be43 69ba
00000290: d0a0 0bbd 9c08 98bd 9dca a13d 9e7e ce3d
000002a0: 6bc9 50bd e7fe 6bbc a28d a3bc cc0f 013e
000002b0: 80ac 67ba dcf9 ca3c b76e 0bbe 956b 313e
000002c0: 7213 833d 177d aabd a006 6b3c 819b ccbd
000002d0: 69aa 1bbd bb7c 9bbc 3ab5 aa3b 1481 7e3d
000002e0: b556 ad3d 681f f53d 8b5d 763d 3d3f 3dbd
000002f0: 2ce6 083e 648e d43d 0c82 f73d 7d33 dcbd
00000300: 0d2f 1abe f419 843d fb64 26bd 3c42 3bbd
00000310: 8030 4a3d c44d fbbd 91cc cebc 26b2 f93c
00000320: 1235 35be 772c 37be ee35 283e 9eda 623d
00000330: c344 3a3d 63e6 973d b196 283e 4137 9cbd
00000340: 184c 3d39 5724 a6bc db30 efbd 9139 073d
00000350: 22d5 bbbd 4e23 af3d a72c 08bd 12d8 a33d
00000360: f7ad 1c3d 2f43 d4bc 4ffd ba3d 9d8a 05be
00000370: a934 253e 0cc1 d83d 8fdd 02bc cc84 8b3b
00000380: 36c4 9bbc 1c31 27bd 5113 86bd 152a e73d
00000390: 70f5 9f3c 31a0 0a3d 1749 83bb bf6c f73d
000003a0: e83e dd3d 193f 19bc 2ef8 b1bb 699f db3d
000003b0: ae35 0e3d 6a21 b4bd 65c4 b5bd 23a7 a23d
000003c0: bf1b 5a3d 6852 3a3d b0a0 afbb ce20 013e
000003d0: e76b 183c f8fb 19bd f681 d2bc a320 95bc
000003e0: b098 8abb 5b8d febd 1a5a 8ebd 060e ffbd
000003f0: 6da9 da3d ed37 e33c 9608 b93d 3048 09be
