Assets/Spaceship 2.onnx (onnx, 80100 bytes, 7 tensors)

action_model._continuous_distribution.log_sigma f4 [1, 7]
0	0xba9ba947	-0.001187601
1	0xbc11ba25	-0.008894478
2	0xbd0a2789	-0.03372911
3	0xbba70482	-0.005096973
4	0x3be8af37	0.0071009654
5	0x3c4e6c77	0.012599102
6	0xbca34df3	-0.01993463

action_model._continuous_distribution.mu.bias f4 [7]
0	0x3b2b0124	0.002609321
1	0x3bf43ff8	0.0074539147
2	0xbd667f02	-0.056273468
3	0x3b80641e	0.003918185
4	0xbc2cc9df	-0.010546177
5	0x3cf0c871	0.029392453
6	0x3d2aeab5	0.04172774

action_model._continuous_distribution.mu.weight f4 [7, 128]
0	0x3c62396a	0.013807634
1	0xbc59be3b	-0.013289983
2	0x3d32e022	0.04367078
3	0xbd0b4355	-0.03399976
4	0x3b299579	0.0025876446
5	0x3d299a68	0.04140702
6	0x3ae471db	0.0017428951
7	0x3cb29392	0.021798883
8	0xbd3908b3	-0.04517431
9	0x3cd3cd47	0.02585472
10	0x3c4be82b	0.01244549
11	0x3c7008f2	0.01465057
12	0x3c145351	0.009053067
13	0xbb98d6a7	-0.0046642604
14	0xbbc635f0	-0.0060489103
15	0x3cd5a3c2	0.026079062
16	0xbd15bd76	-0.036557637
17	0x3c4f4cb3	0.012652564
18	0x3cf51e71	0.029921742
19	0xbc3af06d	-0.011409861
20	0xbcb0eda0	-0.021597683
21	0xbc6b01f4	-0.014343727
22	0x3ce83a65	0.028348157
23	0xbcc40c0c	-0.023931526
24	0x3caaf37d	0.020868057
25	0x3b5cd494	0.0033696042
26	0x3cfc14a5	0.030771563
27	0x3c166ed4	0.009181697
28	0x3c05f1ea	0.008175353
29	0x3c322554	0.0108731575
30	0xbc250ed8	-0.01007434
31	0x3bc76485	0.006084981
32	0x39070dda	0.00012879763
33	0xbb5f72e4	-0.003409558
34	0x3c263910	0.010145441
35	0xbc900044	-0.017578252
36	0xbb3ea4c4	-0.0029089907
37	0x397ca319	0.00024093351
38	0x3ce6622e	0.028122988
39	0x3c1acc52	0.009448128
40	0xbcdea517	-0.02717833
41	0x3c9b5772	0.018962596
42	0xbc014c1c	-0.007891681
43	0xbc07569b	-0.008260394
44	0xbc7dc1f2	-0.015488135
45	0x3bfd4240	0.007728845
46	0xbc3cb73a	-0.011518294
47	0xbca30b1c	-0.019902758
48	0xbb35077f	-0.0027622876
49	0x3ba41cb5	0.005008305
50	0xbc33115f	-0.010929435
51	0x395c5c53	0.00021015228
52	0x3bc40db8	0.0059830807
53	0xbc2fc17d	-0.010727284
54	0x3d0c0487	0.034184005
55	0xbca82739	-0.020526515
56	0x3cf35103	0.029701715
57	0x39581a81	0.00020609239
58	0xbbd1cd77	-0.006402667
59	0xbc1dc910	-0.009630457
60	0x3c7385ec	0.014863472
61	0xbc1bf34b	-0.009518455
62	0x3b04e9ac	0.002028088
63	0xbc49eecc	-0.012325
64	0xbca5f2d7	-0.020257397
65	0xbc2fef1c	-0.01073816
66	0xbc4b3e6c	-0.012405019
67	0xbb89cfe9	-0.004205693
68	0xbc75edd2	-0.015010314
69	0xbbd14f24	-0.006387608
70	0xbc9221d0	-0.017838389
71	0xbcdc7f09	-0.026916044
72	0xbb0e1b6d	-0.0021683828
73	0x3cbc36c5	0.022975335
74	0x3b9187b6	0.004441227
75	0x3c17e96a	0.009271959
76	0x3c9af12f	0.018913833
77	0x3bc55a4c	0.006022727
78	0xb9883f60	-0.0002598716
79	0xbcc4c2ae	-0.024018612
80	0xbcafbc2a	-0.021452028
81	0x3ca015bf	0.01954162
82	0x3c721fd1	0.014778093
83	0xbc9137bb	-0.01772677
84	0xbc469680	-0.012120843
85	0xbcddf718	-0.027095363
86	0xbd0118ba	-0.03151772
87	0xbb162942	-0.0022912775
88	0xbce20c4c	-0.027593754
89	0xbbe49b88	-0.0069765486
90	0x3c0dee72	0.008662807
91	0x3b0d476b	0.002155746
92	0x3c3e7367	0.011624194
93	0x3c5e2674	0.013558973
94	0xbd20e209	-0.039278064
95	0x3c6d5a6c	0.01448689
96	0xbc65465e	-0.013993828
97	0x3c070fb1	0.008243487
98	0xbc981f47	-0.018569602
99	0x3c586a4a	0.013208935
100	0x3c9fca42	0.019505624
101	0xbca52dcc	-0.02016344
102	0x3c3c10e8	0.01147864
103	0xbc586092	-0.013206618
104	0x3c84647b	0.016161194
105	0x3c031006	0.007999426
106	0xbc1543bd	-0.009110388
107	0xbb3b8034	-0.002861035
108	0x3c097fe0	0.008392304
109	0x3b669259	0.0035182445
110	0xbc8b4a08	-0.017003074
111	0x3c981ed4	0.018569387
112	0x3c219438	0.009861998
113	0xbc3f9c04	-0.011694912
114	0xbcb9f1ba	-0.022698272
115	0xbd26e34a	-0.040744103
116	0x3b6df538	0.0036309492
117	0x3c7d24f4	0.015450705
118	0x3bc1e40e	0.005917079
119	0x3b9f264b	0.00485686
120	0xb88d6dae	-6.7438334e-05
121	0xbc32b433	-0.010907221
122	0xbc75f47e	-0.015011905
123	0xbc6374c4	-0.01388282
124	0xbd1ba0b7	-0.037995066
125	0xbc8de321	-0.017320218
126	0xbc9fa82d	-0.019489372
127	0xba5e4335	-0.00084786426
128	0xbcfc4f85	-0.030799637
129	0xbd3f16b6	-0.04665252
130	0xbc9ad8fd	-0.018902296
131	0xbcb363a2	-0.021898095
132	0xbd1606e5	-0.03662767
133	0xbc156672	-0.009118663
134	0x3b33465d	0.0027355172
135	0x3bf3d548	0.0074411966
136	0xbc79a865	-0.015237902
137	0x3acf7923	0.0015828948
138	0xbcbef893	-0.023311889
139	0x3ceed112	0.029152427
140	0xbcb7f378	-0.022454962
141	0xbc6564b3	-0.014001059
142	0x3c39de9f	0.011344581
143	0xb9651ae8	-0.00021849165
144	0x3cd23f30	0.025664896
145	0xbcb71499	-0.022348689
146	0x3c6a48c0	0.0142995715
147	0xbca0268b	-0.019549629
148	0x3b906db0	0.004407607
149	0x3d3df8cd	0.046379853
150	0x3bbfa61f	0.0058486606
151	0x3c09220a	0.008369932
152	0x3cadf82f	0.021236507
153	0x3ced5862	0.028972808
154	0xbcc0fb9d	-0.023557479
155	0xbc84d3b4	-0.01621423
156	0x3cc294c9	0.023752587
157	0x3c01e8ba	0.0079290215
158	0x3c4aec3f	0.012385427
159	0xba90015a	-0.0010986731
160	0xbca40c9e	-0.020025548
161	0xbc3808c0	-0.011232555
162	0xbbbce22b	-0.005764266
163	0x3c7f1a31	0.015570209
164	0xbc500f16	-0.012698909
165	0xbce679e4	-0.028134294
166	0xbabbf3de	-0.0014339646
167	0xbd08b7f7	-0.033378568
168	0xbcbb8e5b	-0.022895029
169	0xbbf14542	-0.0073629925
170	0xbbb1a4f5	-0.0054212757
171	0x3c257bc2	0.010100307
172	0x3a65508a	0.0008747658
173	0x3c56d884	0.013113145
174	0x3c94143b	0.018076053
175	0x3ceabafb	0.028653612
176	0x3c6040dc	0.013687339
177	0xbc215e2f	-0.009849115
178	0x3d0441be	0.03228926
179	0xbb2e9e28	-0.0026644561
180	0x3c9ba580	0.018999815
181	0x3d043066	0.03227272
182	0xbc156b75	-0.009119858
183	0x3ccffb56	0.025388401
184	0xbc60eb4c	-0.013727974
185	0xbc92157c	-0.01783251
186	0x3b97517f	0.0046178694
187	0xbbc37dd6	-0.0059659285
188	0x3ba5a55a	0.005055112
189	0xbb7bb7dc	-0.003840915
190	0x3bf071e4	0.0073377956
191	0x3c904985	0.017613182
192	0xbd24d06c	-0.04023783
193	0xbcdb33ec	-0.026758157
194	0xbc5a3cc4	-0.013320152
195	0x3c099dc8	0.008399434
196	0xbb9332ab	-0.004492124
197	0xbc78d46b	-0.015187363
198	0x3caa32de	0.020776208
199	0x3c9501e7	0.018189384
200	0xbc761958	-0.015020691
201	0xbc9c9913	-0.01911596
202	0xbc180c26	-0.00928024
203	0xbd4c3467	-0.049854662
204	0x3d53d9bc	0.05172132
205	0xbc19b287	-0.009380943
206	0x3bf2aef4	0.00740611
207	0x3cccfe1d	0.025023514
208	0xbc954a40	-0.018223882
209	0x3c4861ea	0.012230376
210	0x3d006509	0.031346355
211	0xbab605e9	-0.0013887259
212	0xbc8c141b	-0.01709943
213	0xbc96dd9e	-0.018416222
214	0xb9d22f13	-0.00040089394
215	0xbb79b2ee	-0.0038101035
216	0x3bd9268e	0.0066269105
217	0x3ac9e6bf	0.0015403851
218	0x3b8f2897	0.0043688524
219	0xbcfd5afd	-0.030927176
220	0x3985b8ec	0.00025505514
221	0x3b111428	0.0022137258
222	0xbc9ded7e	-0.019278284
223	0x3be8fc05	0.007110121
224	0xbcdcec5c	-0.026968174
225	0x3a7f226a	0.0009732606
226	0x3d37ac04	0.04484178
227	0x3bdf8b02	0.006821991
228	0x3bc04ac2	0.005868287
229	0xba9d4a50	-0.0012000296
230	0x3cd83d1a	0.026396323
231	0x3acce2ef	0.0015631596
232	0xbba4f5ec	-0.005034199
233	0x3bbd7f64	0.0057830084
234	0xbadcd615	-0.0016848469
235	0xbd38f156	-0.04515203
236	0xbbea2e2c	-0.0071466174
237	0xbc677489	-0.014126905
238	0x3c859fc1	0.016311528
239	0xbbd9ac57	-0.006642859
240	0x3ab8bce6	0.0014094382
241	0xbcf34187	-0.029694332
242	0xbbccdfe2	-0.006252275
243	0x3cad9533	0.021189308
244	0x3bb78b53	0.0056013255
245	0xbb932e41	-0.004491598
246	0xbc440ae2	-0.011965485
247	0x3cac7c1c	0.021055274
248	0xbbdd0e7a	-0.0067461105
249	0xbc4d1616	-0.012517473
250	0x3b6c8024	0.003608712
251	0xbc42776c	-0.011869293
252	0xbb659b96	-0.0035035363
253	0xbcd3044b	-0.025758883
254	0x3c326b77	0.010889879
255	0xbbb7a933	-0.005604887

network_body.linear_encoder.seq_layers.0.bias f4 [128]
0	0xbc81b8f6	-0.015835267
1	0x3b70f777	0.0036768594
2	0xbbfa9735	-0.00764742
3	0xbcb9e338	-0.022691354
4	0x3ba27056	0.004957239
5	0xbc6b3899	-0.014356756
6	0xbbeb72d6	-0.0071853204
7	0x3a9e45fc	0.00120753
8	0x3bd76246	0.0065729944
9	0xbced9544	-0.02900184
10	0x3ba86d59	0.0051399884
11	0xbd8b9e4e	-0.068173036
12	0xbcf43b12	-0.029813323
13	0xbb9ae3ae	-0.0047268486
14	0xbbad9490	-0.005297251
15	0x3c6935f8	0.014234059
16	0xbc86b38c	-0.016443036
17	0xbc969d00	-0.01838541
18	0xbd3b2055	-0.04568513
19	0x3b72d58f	0.003705356
20	0xbd1361c1	-0.035981897
21	0x3cb9b63e	0.022669908
22	0x3d0eaec5	0.034834642
23	0x3b7614e2	0.0037549068
24	0xbd03dace	-0.03219109
25	0xbcb0176f	-0.021495549
26	0xbd15de04	-0.036588684
27	0x3c9f778a	0.01946618
28	0xbcc3ba6f	-0.02389261
29	0x3d008122	0.03137315
30	0x3aa574ce	0.0012623311
31	0xbce11a0c	-0.02747824
32	0xbd29f7b8	-0.04149601
33	0xbbf542c9	-0.007484768
34	0xbbe2f1dd	-0.006925805
35	0xbc838bea	-0.016057927
36	0xbce1cda7	-0.027563883
37	0xbc89162b	-0.016734203
38	0xbc6e2d1a	-0.01453712
39	0x3c703498	0.014660977
40	0xbcbb706c	-0.022880755
41	0xbc38e125	-0.011284147
42	0xbd061a16	-0.03273972
43	0xbc4a4a92	-0.0123468805
44	0xbb88cc54	-0.0041747484
45	0x3be21406	0.0068993596
46	0x3c87c71d	0.016574437
47	0xbd0a60df	-0.03378379
48	0xbb7ea9e0	-0.0038858578
49	0xbbabeeea	-0.0052469866
50	0xbbfd7e3c	-0.0077359956
51	0xbc27e1e7	-0.01024673
52	0xbcc8e7f6	-0.02452467
53	0x3c3416ae	0.010991735
54	0xbcc4d4a6	-0.02402718
55	0xbcad99d3	-0.021191513
56	0xbc609801	-0.013708116
57	0xbd1197c3	-0.035545122
58	0x3b2aa363	0.0026037327
59	0xbb7a5930	-0.0038200133
60	0x3c4d2d0b	0.012522946
61	0x3ca741ea	0.020417172
62	0xbc79b7a3	-0.015241536
63	0x3caef6b3	0.02135787
64	0xbc4d4a72	-0.012529956
65	0x3bd0ec5c	0.0063758325
66	0xbb18d90e	-0.0023322734
67	0xbbfd9846	-0.0077390997
68	0xbcb8c2cc	-0.022553824
69	0x3cac056e	0.020998683
70	0x3bf78a50	0.00755433
71	0xbc5d3bc4	-0.013503019
72	0xbcba60c7	-0.022751225
73	0xbc9f9183	-0.019478565
74	0xbc8d636d	-0.017259324
75	0xbcae2280	-0.021256685
76	0xbd2d989c	-0.042381868
77	0x3c992e9f	0.018698988
78	0xbd561fd0	-0.052276433
79	0x3abae0d1	0.0014257674
80	0xbcedf792	-0.029048715
81	0xbcbd9bb7	-0.02314554
82	0x3d1d2794	0.038367823
83	0x3c025953	0.007955867
84	0xbc370411	-0.011170403
85	0x3c8ca457	0.017168207
86	0xbb2c1c98	-0.002626216
87	0x3c8cc271	0.01718256
88	0x3c54a091	0.012977735
89	0xbd22568f	-0.03963333
90	0xbd0eb95a	-0.034844734
91	0xbccfe70f	-0.025378732
92	0xbc2a577f	-0.010396837
93	0x3c7658d7	0.0150358295
94	0xba623d17	-0.0008630319
95	0xbc01af47	-0.0079153245
96	0x3c3a0578	0.011353843
97	0xbbcbdc84	-0.006221356
98	0x3c9b9f69	0.018996911
99	0xbc2c6b4d	-0.010523629
100	0x3a1a32b4	0.0005882189
101	0xbb350bcb	-0.0027625437
102	0xbc1ab079	-0.009441488
103	0x3cfe0b2c	0.031011187
104	0x3d0d82d6	0.034548603
105	0xbc9993d2	-0.018747244
106	0x3b42deea	0.0029734918
107	0xbc9ed76d	-0.019389832
108	0xbbaed047	-0.005334887
109	0xbcab1210	-0.020882636
110	0x3d0e3f32	0.034728236
111	0xbc93cd4f	-0.018042235
112	0xbb57f9ad	-0.0032955215
113	0xbc35ba2c	-0.01109175
114	0xbcc06072	-0.023483489
115	0x3c75f17a	0.015011186
116	0xbc30dcdd	-0.010794845
117	0x3c582582	0.013192536
118	0x3cf3a2e6	0.029740762
119	0xbc7af6a4	-0.015317593
120	0xbc906b7c	-0.017629378
121	0x3ccf891e	0.025333937
122	0xbca91125	-0.020638058
123	0xbad5ec85	-0.0016321099
124	0xbc47a192	-0.012184517
125	0xbc95d3d1	-0.018289478
126	0x3b5af020	0.0033407286
127	0x3c5117d2	0.012762027

network_body.linear_encoder.seq_layers.0.weight f4 [128, 15]
0	0xbd15a4da	-0.036534168
1	0x3ddb254b	0.107004724
2	0xbc65e516	-0.014031669
3	0xbeb6f182	-0.3573113
4	0xbd8d7253	-0.06906571
5	0xbdbbabc6	-0.091636226
6	0xbe7d0f21	-0.24712802
7	0x3e668efc	0.22515482
8	0xbb8ae95e	-0.0042392453
9	0xbe5de1cd	-0.21668167
10	0xbd14ee3d	-0.036360014
11	0x3e4b814b	0.1987354
12	0xbefa6e0b	-0.4891208
13	0x3e9de45b	0.30838284
14	0x3e054242	0.13013557
15	0xbd26eb6c	-0.04075186
16	0x3dd3f284	0.103489906
17	0x3e619ae7	0.22031747
18	0x3ce4134c	0.027841233
19	0xbec14b83	-0.37752923
20	0xbd9dcafe	-0.07704733
21	0xbbbd1826	-0.005770701
22	0xbf17f926	-0.59364545
23	0xbe3bbc39	-0.1833352
24	0x3ca76852	0.020435486
25	0xbee163ac	-0.44021356
26	0x3ceb0108	0.028687015
27	0x3df9143e	0.12162064
28	0x3d19d75b	0.037558895
29	0xbdea64fa	-0.11445041
30	0xbe0e601b	-0.13903849
31	0x3e0fc93e	0.14041612
32	0xbca8c6b5	-0.020602563
33	0xbd9f6d3a	-0.07784505
34	0xbee24091	-0.44189885
35	0xbc3f3fdf	-0.011672943
36	0x3ea15036	0.3150651
37	0xbe1a5b98	-0.15074003
38	0xbc82f46c	-0.01598569
39	0x3e986bcb	0.2976974
40	0x3d78979e	0.06069147
41	0x3f23fab2	0.64054406
42	0xbe282530	-0.16420436
43	0x3e1e5cb0	0.15465045
44	0xbd37b38e	-0.04484897
45	0x3e31ac11	0.17350794
46	0xbe88c992	-0.26716286
47	0xbee8ec3a	-0.45492727
48	0x3e7808ec	0.24222153
49	0xbc24f288	-0.01006759
50	0x3dc6cf49	0.09707505
51	0xbe7410e1	-0.23834564
52	0x3dafb8ad	0.08580146
53	0xbcb5b1c3	-0.02217949
54	0x3dd11514	0.102090985
55	0xbec5fcc0	-0.38669395
56	0x3d042ce0	0.03226936
57	0xbd2e9d22	-0.042630322
58	0x3cdcf25c	0.026971035
59	0x3dafe25d	0.08588097
60	0xbbc6a987	-0.0060626897
61	0x3dfd7228	0.12375289
62	0xbee2d25e	-0.44301122
63	0xbd16a0f8	-0.036774606
64	0xbe67cc5a	-0.22636548
65	0x3efa96b7	0.4894311
66	0xbdebedb9	-0.115199514
67	0xbe12d612	-0.14339474
68	0x3de5da9f	0.11223339
69	0xbd833e0f	-0.06408321
70	0xbe3ab6d5	-0.18233807
71	0x3e2f9b8b	0.17149179
72	0x3de67761	0.112532385
73	0xbf04ae39	-0.5182834
74	0xbeb9930b	-0.36244997
75	0x3e2d2e43	0.16912179
76	0xbca088b5	-0.019596437
77	0x3e02407c	0.12719911
78	0x3d913d32	0.0709175
79	0xbe30c097	-0.17260967
80	0xbd6df4a5	-0.05809464
81	0x3e4ed899	0.20199813
82	0xbdf016c0	-0.11723089
83	0x3da5c830	0.08094823
84	0xbe93a35d	-0.28835574
85	0xbe6709ba	-0.22562304
86	0x3f302331	0.688037
87	0x3d9733aa	0.07382901
88	0xbe88112a	-0.26575595
89	0x3e056297	0.1302589
90	0x3e27de9d	0.16393514
91	0x3ed04787	0.4067957
92	0x3deeccb6	0.11660139
93	0xbe0e9bad	-0.13926573
94	0x3ea36007	0.319092
95	0xbe33b090	-0.17547822
96	0x3cae5c26	0.021284174
97	0x3d6c307b	0.057663422
98	0xbe255b84	-0.16148192
99	0xbecfde68	-0.4059937
100	0x3ee3b793	0.44475994
101	0x3d0c7284	0.034288898
102	0xbeca40e4	-0.39502633
103	0xbe777e42	-0.24169257
104	0xbe652e18	-0.22380865
105	0xbe291751	-0.16512801
106	0xbeb37455	-0.35049692
107	0x3e9b7a66	0.3036682
108	0xbef34462	-0.4751311
109	0xbe4d106a	-0.20025793
110	0xbdcc0f6d	-0.0996388
111	0xbe54111c	-0.20709652
112	0xbe464c9c	-0.19365162
113	0xbe278782	-0.16360286
114	0xbd064c74	-0.032787755
115	0xbdff1851	-0.1245581
116	0xbe389e90	-0.18029237
117	0x3ea3e4b7	0.32010433
118	0xbe55b1df	-0.20868634
119	0xbd8dd378	-0.069251
120	0x3f08a6b7	0.53379387
121	0x3dea39c4	0.11436799
122	0xbe5187df	-0.20461987
123	0xbf0ad935	-0.5423768
124	0x3ea78b16	0.32723302
125	0x3e3aedf6	0.18254837
126	0x3e9f1a4d	0.31074753
127	0xbd8cb1b1	-0.068698294
128	0x3ddb0d95	0.1069595
129	0xbeb58bc4	-0.35458195
130	0x3ea33771	0.31878236
131	0xbe99dd4e	-0.30051655
132	0x3c574a13	0.013140219
133	0x3eb7c3e2	0.35891634
134	0x3e62e9c2	0.22159484
135	0x3e881a99	0.26582792
136	0x3e270cd4	0.16313487
137	0x3e737d6e	0.23778316
138	0xbddadf96	-0.10687177
139	0x3e9dfef8	0.30858588
140	0xbdd037f1	-0.1016692
141	0xbe413b56	-0.18870291
142	0xbeb4e9bc	-0.35334575
143	0xbe768da3	-0.24077468
144	0xbcd7665b	-0.026293924
145	0x3ea388b7	0.31940243
146	0x3b84711f	0.0040418054
147	0x3e5717da	0.21005192
148	0x3e4813e4	0.19538838
149	0x3f07b6cd	0.53013307
150	0x3e1152c5	0.1419173
151	0x3d957dae	0.07299362
152	0x3df013da	0.117225364
153	0xbc981475	-0.018564442
154	0x3eabc330	0.33547354
155	0xbc45149b	-0.0120288385
156	0xbeb04bb8	-0.3443277
157	0x3e84d89a	0.25946504
158	0x3e9a4ff2	0.30139118
159	0xbde15a1a	-0.11003514
160	0xbea8054c	-0.3281654
161	0xbce492f8	-0.027902111
162	0xbf0419ca	-0.5160185
163	0x3e241c9a	0.16026536
164	0xbe09f403	-0.1347199
165	0xbd052c2c	-0.03251283
166	0xbd851330	-0.064978
167	0xbea121bc	-0.3147105
168	0x3ebfa858	0.37433124
169	0xbd3add20	-0.045621037
170	0x3e75b216	0.23993716
171	0xbed37ccf	-0.4130616
172	0xbd17d6e8	-0.037070185
173	0xbe998d1a	-0.29990464
174	0xbe6a3d86	-0.22875032
175	0x3e4b0ce8	0.19829142
176	0x3c4d8e2b	0.0125461025
177	0xbd0b2b78	-0.033977002
178	0xbe4316b5	-0.19051631
179	0x3e763461	0.24043418
180	0xbed1d4ea	-0.40982753
181	0xbed2543b	-0.41079888
182	0x3d5f7d68	0.054562956
183	0x3dcb26a6	0.09919481
184	0x3e6c0f12	0.23052624
185	0x3df2fb15	0.11864296
186	0xbf00db79	-0.5033489
187	0xbec18ba1	-0.3780184
188	0xbea879f6	-0.3290555
189	0xbdcb9e56	-0.099423096
190	0xbe73aacf	-0.23795627
191	0x3cdd9811	0.02705005
192	0x3e1806c2	0.14846328
193	0x3d9e825c	0.07739708
194	0xbeb3b8dd	-0.35101977
195	0xbead5462	-0.3385344
196	0x3e82c7e8	0.2554314
197	0x3f33c074	0.70215535
198	0xbdabe8ee	-0.08394037
199	0x3e585f2c	0.21130055
200	0xbec46782	-0.3836022
201	0x3d6b5f42	0.05746389
202	0x3d6a09cf	0.05713826
203	0xbd1ef8c3	-0.038811456
204	0xbf2ef0bb	-0.68336076
205	0x3e8adef0	0.27123213
206	0x3be21abb	0.006900159
207	0x3e4d88b9	0.20071687
208	0x3ee92a40	0.45540047
209	0xbdb965c2	-0.09052612
210	0x3e71bf5d	0.23608156
211	0x3e93f07d	0.28894415
212	0xbea08d73	-0.31357917
213	0x3e084e31	0.13311078
214	0x3defdc93	0.11711993
215	0x3ee13f12	0.4399343
216	0xbd1e93d1	-0.038715187
217	0xbe91a355	-0.28444925
218	0xbed127f6	-0.408508
219	0x3eb42680	0.35185623
220	0xbe5354d0	-0.20637822
221	0xbe278643	-0.1635981
222	0x3c7ea7db	0.01554295
223	0x3e50decc	0.2039749
224	0x3dfc0805	0.12306217
225	0xbd3514b4	-0.044209197
226	0x3e0ae8f6	0.1356543
227	0x3e500e53	0.20317964
228	0x3d3aee21	0.045637254
229	0xbc0adaae	-0.008474989
230	0x3df30a42	0.11867191
231	0x3d807b0e	0.06273471
232	0xbd2a065b	-0.041509967
233	0x3c1cd148	0.009571381
234	0x3eac447f	0.33646008
235	0xbe922aa5	-0.2854816
236	0xbcb165bd	-0.021654958
237	0xbe46dda1	-0.19420482
238	0x3dd19541	0.10233546
239	0xbdbc216b	-0.091860615
240	0xbcfc1e50	-0.030776173
241	0xbdac1503	-0.08402445
242	0x3ecd6deb	0.40122923
243	0xbdd7e9cd	-0.10542641
244	0x3c03bdaa	0.008040825
245	0x3e2525ca	0.16127697
246	0xbf06a793	-0.5259945
247	0x3e8c331d	0.27382746
248	0x3cc10c43	0.023565417
249	0xbedf4ec8	-0.43614793
250	0xbebd215a	-0.36939508
251	0x3e02ac57	0.12761055
252	0xbe7103f3	-0.23536663
253	0x3dfbe6e2	0.12299897
254	0xbe021377	-0.12702738
255	0xbe4294c9	-0.1900207

network_body.linear_encoder.seq_layers.2.bias f4 [128]
0	0x3b7e9105	0.0038843763
1	0xbc403112	-0.011730449
2	0x3bf6db4b	0.007533466
3	0x3c8485a9	0.016177015
4	0x3b85941f	0.0040764953
5	0xbd1316ec	-0.035910532
6	0x3b416784	0.0029511163
7	0xbce6cc85	-0.028173694
8	0x3bd9a460	0.0066419095
9	0x3c176416	0.009240171
10	0xbcd5563f	-0.026042102
11	0xbcf62069	-0.030044751
12	0x3c95a12e	0.018265333
13	0x3c9df3db	0.019281318
14	0x3bfa19a9	0.0076324535
15	0x3c8a26de	0.016864236
16	0x3c43cd60	0.011950821
17	0xbcfed2b5	-0.031106332
18	0xbd08c8a4	-0.03339447
19	0xbcd7fa39	-0.026364433
20	0xbd6615ba	-0.056173064
21	0x3c8a8843	0.016910678
22	0xbba1e3b8	-0.0049404763
23	0xbd22b37b	-0.039721947
24	0xbcbb255f	-0.022844968
25	0xbc05b86e	-0.008161647
26	0xbb7bf5dc	-0.0038446104
27	0x3c2eb190	0.010662451
28	0xbd3094ca	-0.043110646
29	0xbc0ef134	-0.0087244995
30	0x3cc00b09	0.023442762
31	0x3d145b21	0.03621972
32	0xbd186654	-0.037206963
33	0xbc17e6c3	-0.0092713265
34	0xbb6fdf56	-0.0036601624
35	0x3d196bc5	0.037456293
36	0x3d0e2fd6	0.03471359
37	0xbca10b10	-0.019658595
38	0x3b9f2159	0.0048562703
39	0xbcbe70e6	-0.023247194
40	0xbcfdc3cb	-0.03097715
41	0xbc6708ef	-0.014101251
42	0xbcbfd7b1	-0.02341828
43	0xbd5af779	-0.053458665
44	0x3b0c7742	0.0021433388
45	0xbbe07f99	-0.0068511483
46	0xbd0907b6	-0.03345462
47	0x3cc37947	0.02386154
48	0x3c3aaee1	0.011394233
49	0x3d09b94f	0.03362399
50	0xbbae2f0e	-0.005315668
51	0x393314f3	0.00017078574
52	0x3c293bd6	0.010329207
53	0x3c69c77c	0.014268752
54	0x3c3ebb08	0.011641271
55	0xbcb7a125	-0.022415707
56	0x3b32d14f	0.0027285402
57	0xbc77cbbf	-0.01512426
58	0x3c745cbc	0.014914688
59	0xbd377f80	-0.044799328
60	0x3c9c2cfc	0.019064419
61	0xbb9b3362	-0.00473635
62	0xbcbac939	-0.022801029
63	0xbbec08c2	-0.0072031925
64	0x3b692eab	0.0035580795
65	0xbb78a81c	-0.0037941998
66	0xbc7cfd22	-0.015441211
67	0x3cc8259c	0.024431996
68	0xbc6be30c	-0.014397394
69	0xbd57f0d8	-0.05271992
70	0xbb2f8cdd	-0.0026786842
71	0x3cd6e7cd	0.026233578
72	0xbd12bcd0	-0.035824597
73	0x3cb94f59	0.022620844
74	0xbcd5fc5b	-0.026121309
75	0x3b911880	0.0044279695
76	0xbb920258	-0.004455846
77	0xbc83da65	-0.01609535
78	0xbd101925	-0.03518023
79	0x3cf6545c	0.030069523
80	0xbc50eaf8	-0.012751333
81	0x3ce38d78	0.027777418
82	0x3c6b4c8e	0.014361514
83	0x3d031ea1	0.032011632
84	0x3cbaf937	0.022823913
85	0xbc038ed8	-0.008029662
86	0xbc952143	-0.018204337
87	0x3d18717a	0.037217595
88	0x3c4fe0ae	0.012687845
89	0xbc7ae4bb	-0.015313323
90	0xb9e24477	-0.0004315709
91	0x3b705fc5	0.0036678177
92	0xbad1dbaa	-0.00160109
93	0x3ca870e9	0.020561652
94	0xbc8703ea	-0.016481359
95	0x3d13961c	0.036031827
96	0x3c77ee98	0.015132569
97	0x3d6ca924	0.057778493
98	0x3c8742d4	0.016511358
99	0xbc05f305	-0.008175616
100	0xbd2435c7	-0.04009035
101	0xbd03ecd2	-0.03220827
102	0x39801a2b	0.0002443356
103	0x3d10f5fd	0.035390843
104	0xbc26f264	-0.010189626
105	0x3c44dacc	0.012015056
106	0x3cf5753b	0.029963126
107	0x3c3960b4	0.01131456
108	0xbc94894a	-0.01813187
109	0xbcb7c6d0	-0.022433668
110	0xbc3a144b	-0.011357377
111	0xbd39a811	-0.045326296
112	0xbcc40576	-0.023928385
113	0xbbf72a6c	-0.007542899
114	0xbc118ece	-0.008884145
115	0xbc024818	-0.007951759
116	0x3cff7809	0.031185167
117	0xbc851539	-0.016245471
118	0xbccee317	-0.02525477
119	0xbabfe14d	-0.0014639288
120	0x3c057c26	0.008147275
121	0x3c2fd53f	0.010731994
122	0xbcb9e68f	-0.022692947
123	0xbc0a5700	-0.008443594
124	0x3c439cd6	0.011939248
125	0xbcd8cea5	-0.026465723
126	0xbbbb063b	-0.00570753
127	0x3ca50f0e	0.02014878

network_body.linear_encoder.seq_layers.2.weight f4 [128, 128]
0	0x3e1a9432	0.15095595
1	0xbc087c3e	-0.008330403
2	0x3cbb2397	0.022844119
3	0x3d19debe	0.03756594
4	0xbe10376c	-0.14083642
5	0xbbd5105d	-0.006502195
6	0x3df56c6b	0.1198357
7	0x3df734ae	0.12070595
8	0xbe2e8569	-0.1704308
9	0x3ce424c0	0.027849555
10	0xbdd10e17	-0.102077655
11	0xbc9f0a3e	-0.019414064
12	0xbde2e75f	-0.11079287
13	0x3d41e7e9	0.047340307
14	0xbd355f96	-0.04428061
15	0xbcd14c5c	-0.025549106
16	0x3affaf4d	0.00195072
17	0x3d8fb526	0.07016973
18	0xbcbe2e21	-0.023215355
19	0xbd7093e1	-0.05873478
20	0x3c223255	0.009899695
21	0x3e22456d	0.15846796
22	0x3c0f6175	0.008751263
23	0xbcacfdac	-0.021117054
24	0x3d84c966	0.06483726
25	0x3b81e6b3	0.003964269
26	0x3d8fc958	0.07020825
27	0xbe601e4a	-0.21886554
28	0x3ab83b08	0.0014055679
29	0x3c6d96c5	0.014501278
30	0x3cf78eda	0.030219484
31	0xbdbdb55b	-0.092631064
32	0xbd300be1	-0.04298008
33	0xbd95dda9	-0.07317669
34	0x3d66f602	0.056386955
35	0x3da85854	0.08219972
36	0xbd9f3185	-0.07773117
37	0x3e26296c	0.16226739
38	0xbd627182	-0.05528403
39	0x3e3c19f0	0.1836927
40	0xbe197f7e	-0.1499004
41	0x3da23a9a	0.079213336
42	0x3e26a372	0.16273287
43	0xbc08a2e8	-0.008339621
44	0xbe02a3a5	-0.12757738
45	0xbd26a274	-0.04068227
46	0xbb8c5edf	-0.0042837705
47	0xbd48e9a5	-0.049050946
48	0x3e488091	0.19580294
49	0x3d7c875e	0.061652534
50	0x3da1371b	0.07871839
51	0x3ccbde71	0.024886342
52	0x3dbfc82d	0.093643524
53	0x3d90fbc0	0.070792675
54	0x3da094ef	0.07840907
55	0x3c90ba44	0.017666943
56	0x3e1026bb	0.14077275
57	0x3c63dd27	0.013907707
58	0x3cd165ab	0.025561174
59	0xbd4b5600	-0.049642563
60	0xbc0c15dc	-0.008550134
61	0xbc0cc516	-0.008591911
62	0x3e2fad2f	0.17155908
63	0x3db4841a	0.08814259
64	0xbcc86f79	-0.024467217
65	0xbdaebd4f	-0.085322015
66	0x3d6eb77a	0.058280446
67	0x3d1093be	0.035297148
68	0x3dd41975	0.10356418
69	0xbe290969	-0.16507496
70	0xbc3f3699	-0.011670732
71	0x3c5c6b3b	0.0134533
72	0xbe21b32f	-0.1579101
73	0xbdf39f8c	-0.118956655
74	0xbd64cc8e	-0.05585914
75	0xbc0b95f2	-0.0085196365
76	0xbd4ba895	-0.04972132
77	0xbdb6ec40	-0.0893178
78	0x3d755492	0.059895106
79	0xbd332053	-0.043732
80	0xbd9c90eb	-0.076448284
81	0xbdda6496	-0.106637165
82	0xbdb84e7d	-0.089993455
83	0x3e3430f5	0.175968
84	0x3dfa7b99	0.12230606
85	0xbd1b1b66	-0.037867926
86	0xbd407364	-0.046985045
87	0xbd6eef20	-0.058333516
88	0xbe8315b5	-0.256025
89	0xbe43dd10	-0.19127297
90	0x3dbe4b08	0.09291655
91	0x3d73524d	0.05940466
92	0x3b3e210c	0.0029011397
93	0x3d0d8f95	0.03456076
94	0xbe3e6d02	-0.1859627
95	0xbdb0e562	-0.08637501
96	0x3df8cb2d	0.12148128
97	0xbe036460	-0.12831259
98	0xbd8c59d9	-0.068530746
99	0x3b56fbf3	0.0032803982
100	0xbd8da5b1	-0.06916369
101	0x3df274b7	0.11838668
102	0xbdea0336	-0.11426394
103	0x3e684907	0.22684108
104	0xbcb89cbf	-0.02253568
105	0x3df9f3fc	0.122047395
106	0x3e47e6ed	0.19521685
107	0x3cc53760	0.024074256
108	0xbe430e79	-0.1904849
109	0xbdf27bc4	-0.11840013
110	0x3c929f59	0.017898249
111	0xbd8396a9	-0.064252205
112	0x3d8b2fd3	0.06796231
113	0x3cf09a50	0.029370457
114	0xbe3f1aad	-0.1866252
115	0x3cbaf9f6	0.022824269
116	0x3dba803e	0.091064915
117	0x3cb54b0c	0.022130512
118	0xbdbf43fb	-0.09339138
119	0xbc9939a7	-0.018704249
120	0xbc10a90e	-0.008829368
121	0xbd8ae418	-0.06781787
122	0xbe22f8ff	-0.15915297
123	0x3cf2118d	0.029549384
124	0x3dd34729	0.10316307
125	0x3c6d5e43	0.014487806
126	0xbe465428	-0.1936804
127	0xbe126e59	-0.14299907
128	0x3d1270be	0.03575205
129	0x3e09660d	0.13417836
130	0xbe00b3fe	-0.12568662
131	0xbe047755	-0.12936147
132	0xbdc38e62	-0.09548642
133	0x3c9551ce	0.018227484
134	0x3e281bd3	0.16416864
135	0xbd92a469	-0.07160265
136	0xbd87b6f8	-0.066266954
137	0x3e483c0f	0.1955416
138	0x3e3a1b78	0.18174541
139	0xbc5b3be0	-0.0133809745
140	0xbdf0a184	-0.11749557
141	0xbd927719	-0.07151622
142	0xbd2314dd	-0.03981482
143	0xbdb9acad	-0.090661384
144	0xbe0af733	-0.13570862
145	0x3e02c353	0.12769823
146	0xbd322cfa	-0.043499924
147	0xbe19fdaa	-0.15038171
148	0xbd137b96	-0.036006533
149	0x3bfccd32	0.007714891
150	0xbe898cd9	-0.2686527
151	0xbdd1bde0	-0.10241294
152	0xbd222785	-0.03958847
153	0x3dd48169	0.103762455
154	0xbddc1ca9	-0.10747654
155	0xbda95e31	-0.08269919
156	0x3cc36c76	0.02385543
157	0xbd96d0ab	-0.07364019
158	0xbb2a4160	-0.0025978908
159	0x3e0df6e2	0.1386371
160	0x3c4789a4	0.012178812
161	0x3c075e15	0.008262177
162	0xbd8aec50	-0.06783354
163	0x3e09a0bc	0.13440222
164	0xbc37ca0f	-0.011217608
165	0x3b145d9a	0.0022638799
166	0xbe420cd2	-0.18950203
167	0xbd2f8a8f	-0.04285675
168	0x3d8e246d	0.069405414
169	0x3d239720	0.039939046
170	0x3de04417	0.10950487
171	0x3d60b5e2	0.054860957
172	0x3dbcf0cf	0.09225618
173	0xbd0247c4	-0.031806722
174	0x3d2acaff	0.0416975
175	0xbd80e6ac	-0.06293997
176	0xbd804653	-0.06263413
177	0xbd9a26ee	-0.075269565
178	0xbd3cb200	-0.04606819
179	0xbdc65eef	-0.09686076
180	0xbc24ab55	-0.010050614
181	0xbbbe40df	-0.005806073
182	0x3dfb9941	0.1228509
183	0x3e0e5b21	0.1390195
184	0xbd921462	-0.07132794
185	0x3d6e9c8f	0.058254775
186	0xbd94dbc6	-0.07268481
187	0xbdd02f4a	-0.1016527
188	0x3d4ec1b8	0.050477713
189	0x39bed2cc	0.0003639668
190	0xbd04593a	-0.032311656
191	0xbda7bd47	-0.08190399
192	0xba8def08	-0.0010828683
193	0xbdde75c1	-0.108623035
194	0xbd7d4a8a	-0.061838664
195	0x3be0a060	0.0068550557
196	0xbe0d3215	-0.13788636
197	0x3e1e87e9	0.15481533
198	0x3d3a7e1c	0.045530424
199	0x3c393942	0.011305155
200	0xbcb1c16b	-0.021698674
201	0x3dae4d2f	0.08510815
202	0xbb4d8d23	-0.0031364642
203	0x3df6935e	0.12039827
204	0x3e03cbb2	0.12870672
205	0x3e20f573	0.15718631
206	0xbddd77d7	-0.10813873
207	0xbc3383b9	-0.010956698
208	0x3dbe24da	0.09284373
209	0xb9d40091	-0.00040436213
210	0x3bea03dd	0.007141574
211	0xbb3e353b	-0.0029023427
212	0x3c116677	0.008874527
213	0x3d6a548b	0.057209533
214	0xbae3ce94	-0.0017380291
215	0x3d12426c	0.035707876
216	0x3c4bb70f	0.012433781
217	0xbd695030	-0.05696124
218	0xbd6bb2bd	-0.057543505
219	0x3d2e4052	0.04254181
220	0xbdf758a6	-0.12077455
221	0xbca2f2dd	-0.019891197
222	0xbd97037b	-0.07373711
223	0xbd36c89d	-0.044624913
224	0x3e062611	0.13100459
225	0x3e334a66	0.1750885
226	0xbdcefc7f	-0.101067536
227	0xbb8d26c6	-0.0043076007
228	0x3d24cd3c	0.04023479
229	0x3b2bb51b	0.0026200477
230	0xbd53a42f	-0.05167025
231	0xbd62f81f	-0.055412408
232	0xbcd69bec	-0.026197396
233	0xbca36a09	-0.019948022
234	0xbe7a98d2	-0.24472359
235	0xbd6a43e6	-0.05719366
236	0x3dd4d6cb	0.10392531
237	0x3e054132	0.13013151
238	0xbcda0c8b	-0.02661731
239	0xb7c3eea5	-2.3356939e-05
240	0x3d9c1269	0.07620699
241	0x3e298ecd	0.1655838
242	0x3cc530de	0.024071153
243	0xbd86fedf	-0.065915816
244	0x3d176215	0.036958773
245	0xbd92fe45	-0.07177404
246	0xbddaa085	-0.10675148
247	0x3a5cf0a8	0.00084281946
248	0x3e2e1580	0.17000389
249	0x3b97fb4e	0.004638112
250	0x3de359d2	0.11101116
251	0xbae1a9df	-0.0017216763
252	0x3e4be7dc	0.19912666
253	0x3e0de8d6	0.13858351
254	0x3e3166ce	0.17324373
255	0xbd514d3e	-0.051099055
